checkpoint_wper_duell.pth (torch_old, 571525 bytes, 15 tensors)

fc_in_adv.weight f4 [128, 37]
-0.029092984 0.21371739 -0.03751572 -0.18149914 0.09800849 0.03367475 -0.017000182 0.34770557
-0.076501764 0.10668006 -0.1962902 0.2229678 -0.19899662 -0.02264095 -0.10859894 -0.2682426
0.20043607 0.02046942 0.07980217 0.07909835 0.23419946 -0.8781448 -0.32106495 -0.10710847
-1.1657166 -0.2774537 0.20443314 0.13470544 0.13758355 -0.24503653 -0.04268821 -0.020042026
-0.13281266 -0.19316809 -0.28908658 -0.02102938 0.016302835 0.30947426 -0.06548521 -0.16654395
0.11980193 -0.87092835 -0.08512496 -0.12422154 -0.1193244 -0.032202072 -0.09586071 0.13501188
0.05027449 -0.07960548 0.04730588 0.27581576 0.04065274 0.11579653 -0.035583276 0.018355321
-0.5280785 -0.313539 0.10324996 -0.09365155 0.119930126 0.30919594 -0.058986664 0.090435706
0.0002849649 -0.519386 -0.22248732 -0.105003506 0.22151989 0.16445963 -0.04819684 -0.15129912
0.023648316 -0.09589294 0.027915295 0.12646031 0.24980861 -0.09228995 0.031307325 -0.46691656
0.08447812 0.1930231 0.19667952 -0.8534687 -0.026724886 0.17626712 0.05475403 0.07804175
0.037230074 -0.27061588 -0.008582937 0.17384118 0.35449496 -0.10402881 -0.2616281 0.12428452
0.19727397 -0.013518207 -0.19111669 -0.39401922 0.36735296 0.1448347 0.004433467 -0.68021023
-0.28008467 -0.021954892 -0.0074290726 -0.17860588 -0.09678209 0.09171431 -0.025568644 0.1415693
0.23831558 0.009691169 0.03546295 -0.5503264 0.123856544 -0.102448165 -0.018710127 -0.0328137
-0.9783402 -0.4725576 0.1233574 0.06709972 -0.11332266 -0.36228272 0.023812026 -0.1822203
-0.17899199 -0.3936852 -0.90759856 -0.03572024 -0.12357742 0.06233782 0.18674564 -1.0138695
0.007000225 -0.16349968 0.018743714 -0.24684516 -1.0419781 0.16053276 0.040431257 -0.09084644
-0.35923567 -0.92538226 0.08343899 0.007992473 -0.2518956 -0.030649114 -0.024751872 -0.013253507
0.099718206 0.22059429 -0.57378423 -0.47054777 -0.3700527 -1.1602864 -0.036418803 0.002801185
0.037079446 0.0052932817 -0.14661601 -0.1745881 -0.052123826 0.049890794 0.18893349 0.0774104
-0.20140785 0.093975805 0.24978061 0.0564543 0.5200161 -0.048892245 -0.055240802 -0.021119075
-0.069199584 -0.10502353 -0.0025136091 -0.06324463 0.054520316 0.11166792 0.012705314 -0.039293956
0.06614002 0.16424827 -0.10613886 -0.133233 0.25261274 0.2706082 0.12794603 -0.080289565
-0.27431464 -0.18024912 -0.812295 -0.15447442 0.1388197 -0.12039879 0.1536276 -0.06109387
0.110138714 0.26671037 -0.026198031 -0.13910818 0.059124537 0.051955774 0.17421085 0.14735568
0.080686785 0.07813813 0.044661712 0.11082259 -0.21084917 -0.13679707 -0.21652518 0.3592074
-0.23211296 -0.4991234 -0.1711206 -1.2003868 -0.09167514 0.024912683 0.013705764 -0.05429052
-0.28433305 0.2881932 0.049279988 -0.18685883 -0.15078324 0.089480765 0.049502213 0.1951525
0.10267795 -0.032663718 0.1094079 -0.22958453 0.11476611 0.04778671 -0.23070398 -0.1259267
0.22414033 0.35714704 -0.08672451 -0.043196652 0.11224394 -0.21006514 0.21964668 -0.20416954
-0.24281186 0.03627463 0.10426747 0.110852346 0.108361915 -0.2414314 0.02980203 -0.31035218
00000000: 6954 eebc bbd8 5a3e 15aa 19bd e9da 39be
00000010: adb8 c83d 89ee 093d f743 8bbc 7706 b23e
00000020: f5ac 9cbd 137b da3d 4c00 49be ac51 643e
00000030: c5c5 4bbe 8379 b9bc 1f69 debd 1857 89be
00000040: 1d3f 4d3e 7caf a73c 526f a33d 51fe a13d
00000050: fcd1 6f3e 19ce 60bf a062 a4be af5b dbbd
00000060: 3436 95bf 690e 8ebe ec56 513e 39f0 093e
00000070: b4e2 0c3e dbea 7abe d5d9 2ebd 2d2f a4bc
00000080: 0b00 08be dbcd 45be 2803 94be ce45 acbc
00000090: 868d 853c 6973 9e3e 1c1d 86bd 7f8a 2abe
000000a0: b75a f53d 29f5 5ebf ff55 aebd dd67 febd
000000b0: 5a60 f4bd 52e6 03bd 9f52 c4bd 8e40 0a3e
000000c0: a0ec 4d3d 3308 a3bd cfc3 413d b937 8d3e
000000d0: 7d83 263d bb26 ed3d c5bf 11bd e65d 963c
000000e0: 2730 07bf 2f88 a0be b774 d33d 62cc bfbd
000000f0: ed9d f53d ee4e 9e3e 009c 71bd 5b36 b93d
00000100: 5767 9539 7bf6 04bf b7d3 63be 140c d7bd
00000110: 1cd6 623e 1b68 283e 0d6a 45bd 28ee 1abe
00000120: 1dba c13c 8563 c4bd 9eae e43c d07e 013e
00000130: d4cd 7f3e 8302 bdbd 1c3c 003d b00f efbe
00000140: dd02 ad3d d9a7 453e 5b66 493e ed7c 5abf
00000150: 26ee dabc 5e7f 343e c345 603d 5ad4 9f3d
00000160: 907e 183d 2a8e 8abe 729f 0cbc 6c03 323e
00000170: 5d80 b53e 0f0d d5bd 1ef4 85be e288 fe3d
00000180: 3002 4a3e 787b 5dbc 18b4 43be e3bc c9be
00000190: b015 bc3e 8c4f 143e 9e46 913b 4222 2ebf
000001a0: 4267 8fbe bfda b3bc 946f f3bb 76e4 36be
000001b0: b035 c6bd b6d4 bb3d 5575 d1bc 8bf7 103e
000001c0: 0009 743e b5c7 1e3c 9941 113d 31e2 0cbf
000001d0: 80a8 fd3d 58d0 d1bd fb45 99bc a967 06bd
000001e0: 8174 7abf 12f3 f1be cea2 fc3d 946b 893d
000001f0: b615 e8bd 1f7d b9be 7011 c33c f597 3abe
00000200: ad49 37be 1b91 c9be 6158 68bf 634f 12bd
00000210: 2916 fdbd f155 7f3d 403a 3f3e 7ac6 81bf
00000220: 2562 e53b 766c 27be 6b8c 993c fac4 7cbe
00000230: 8a5f 85bf b362 243e 3f9b 253d b30d babd
00000240: bded b7be dae5 6cbf 10e2 aa3d ddf2 023c
00000250: 76f8 80be da13 fbbc 70c4 cabc 3d25 59bc
00000260: 0f39 cc3d 78e3 613e 86e3 12bf a3eb f0be
00000270: 8c77 bdbe 4484 94bf e22b 15bd 1694 373b
00000280: 9ee0 173d 4473 ad3b 8222 16be 39c7 32be
00000290: cb7f 55bd 4a5a 4c3d c877 413e 5889 9e3d
000002a0: dc3d 4ebe 6376 c03d 7dc6 7f3e a03c 673d
000002b0: c61f 053f 3c43 48bd 2e44 62bd e901 adbc
000002c0: 83b8 8dbd 9416 d7bd 5dbb 24bb 6786 81bd
000002d0: b250 5f3d 27b2 e43d f329 503c b3f2 20bd
000002e0: 6b74 873d b330 283e 555f d9bd 3b6e 08be
000002f0: 7556 813e 288d 8a3e 4904 033e db6e a4bd
00000300: f872 8cbe 3a93 38be 91f2 4fbf 8b2e 1ebe
00000310: c026 0e3e a493 f6bd 8e50 1d3e 913d 7abd
00000320: 6890 e13d 438e 883e 419d d6bc 6072 0ebe
00000330: 922c 723d 94cf 543d 5464 323e 68e4 163e
00000340: 1d3f a53d e206 a03d 33ef 363d f4f6 e23d
00000350: d8e8 57be 8814 0cbe c7b8 5dbe 08ea b73e
00000360: 05af 6dbe 1a8d ffbe 3d3a 2fbe 46a6 99bf
00000370: 2dc0 bbbd af15 cc3c 248e 603c bc5f 5ebd
00000380: 1a94 91be 0f8e 933e d0d9 493d ec57 3fbe
00000390: ec66 1abe b141 b73d d5c2 4a3d 0fd6 473e
000003a0: d148 d23d 64ca 05bd 4011 e03d 3518 6bbe
000003b0: 7f0a eb3d ffbb 433d aa3d 6cbe eef2 00be
000003c0: 0b85 653e fadb b63e 9f9c b1bd f9ee 30bd
000003d0: 27e0 e53d 511b 57be 0feb 603e d211 51be
000003e0: aca3 78be b594 143d 2f8a d53d 8e06 e33d
000003f0: daec dd3d cb39 77be 6323 f43c 7be6 9ebe

fc_in_adv.bias f4 [128]
-0.031476572 -0.0056041484 -0.107798584 -0.18853961 -0.030877545 -0.035178438 0.112143524 0.092477284
-0.2530202 0.012963323 -0.1629277 -0.074828126 -0.040156633 -0.17807017 -0.099142514 0.0029412305
0.06747217 -0.06944595 -0.042976666 -0.0075883097 -0.15064175 0.05533371 0.05747668 -0.08265712
0.059745267 0.12134833 0.04395774 -0.10028454 -0.20507263 -0.06977388 0.062395763 0.05360734
0.060450587 -0.014239554 -0.059964787 -0.23033437 -0.108651854 0.038233418 0.048670407 -0.01945118
0.015822886 0.014137674 0.042132627 0.0034628457 -0.06165587 -0.09306166 0.032978334 -0.16732952
-0.088992976 0.06290511 0.04138454 -0.04333893 -0.023167107 0.029870618 -0.032714747 -0.10062419
-0.15099274 -0.04951586 0.09503036 -0.021708826 -0.059370045 -0.031500287 0.048271436 -0.10377946
0.06736496 0.0010829737 -0.022253346 -0.14027004 -0.09357529 -0.114371985 0.022958862 -0.117035374
0.011716573 -0.14619705 -0.1550382 -0.11530043 0.12008949 -0.22236708 0.12478375 -0.026991429
0.05669888 0.0629812 -0.02972509 -0.15990852 -0.09981246 0.14100225 0.07247645 -0.1341733
-0.0019384166 0.017184058 0.031815268 -0.064786546 -0.13889793 -0.051043656 -0.05452567 0.08239406
-0.0105390875 -0.114655755 0.028132014 -0.0073786597 -0.18947329 -0.15431611 0.056299053 0.045301028
-0.23535453 -0.19076374 -0.031064332 0.17996447 -0.16147499 -0.018379869 0.05521797 -0.09809941
-0.09559733 -0.105327226 -0.014712484 0.003189718 -0.033122126 0.052631732 -0.08905231 -0.040757418
-0.08504178 0.013751714 -0.039260726 -0.17884876 -0.12343834 0.03063797 0.20187558 -0.075998776
00000000: 94ed 00bd 01a3 b7bb 81c5 dcbd 8710 41be
00000010: e8f2 fcbc 4417 10bd 81ab e53d bb64 bd3d
00000020: dd8b 81be 1e64 543c 85d6 26be 7d3f 99bd
00000030: 487b 24bd 0758 36be 3b0b cbbd a9c1 403b
00000040: d92e 8a3d ae39 8ebd 4d08 30bd 5ba7 f8bb
00000050: d541 1abe 9aa5 623d ab6c 6b3d 2348 a9bd
00000060: 74b7 743d 7985 f83d 080d 343d fb61 cdbd
00000070: 8ffe 51be 9ce5 8ebd b392 7f3d 5f93 5b3d
00000080: 099b 773d 054d 69bc a39d 75bd c6dc 6bbe
00000090: dd84 debd a59a 1c3d 9f5a 473d 1558 9fbc
000000a0: ff9e 813c b4a1 673c 4393 2c3d e9f0 623b
000000b0: de8a 7cbd 1d97 bebd 4a14 073d 6e58 2bbe
000000c0: f341 b6bd 65d4 803d d682 293d 2984 31bd
000000d0: f2c8 bdbc 3ab3 f43c e6ff 05bd 0e14 cebd
000000e0: d79d 1abe 24d1 4abd 479f c23d b5d6 b1bc
000000f0: 012e 73bd 7206 01bd 45b8 453d 538a d4bd
00000100: a4f6 893d 91f2 8d3a a64c b6bc f3a2 0fbe
00000110: 67a4 bfbd dc3b eabd 3914 bc3c 3eb0 efbd
00000120: def6 3f3c aeb4 15be 55c2 1ebe a222 ecbd
00000130: 7bf1 f53d 32b4 63be 9f8e ff3d 211d ddbc
00000140: 163d 683d 4afc 803d 0882 f3bc 0fbf 23be
00000150: 7a6a ccbd e562 103e 886e 943d ba64 09be
00000160: 7812 feba 95c5 8c3c ba50 023d cfae 84bd
00000170: 423b 0ebe 2713 51bd 4f56 5fbd 38be a83d
00000180: 23ac 2cbc a3d0 eabd 1c75 e63c afc8 f1bb
00000190: 4905 42be 0b05 1ebe d699 663d 928d 393d
000001a0: c700 71be 9257 43be a07a febc 9b48 383e
000001b0: b359 25be 6191 96bc 3d2c 623d 58e8 c8bd
000001c0: 88c8 c3bd cdb5 d7bd a10c 71bc 960a 513b
000001d0: 11ab 07bd 5f94 573d 0f61 b6bd 40f1 26bd
000001e0: 622a aebd de4e 613c dbcf 20bd 2124 37be
000001f0: 3ecd fcbd 7bfc fa3c 79b8 4e3e 3fa5 9bbd

hidden_list_adv.0.weight f4 [256, 128]
-0.11379577 -0.070045754 -0.089468844 0.02189586 0.059021004 0.0056427317 -0.027006239 0.0076330644
0.053083595 0.026428422 0.023715086 -0.003342191 0.02820083 -0.099345505 -0.12166823 -0.007263559
-0.00973682 -0.08395066 -0.09067924 -0.111945905 0.05844768 0.024077782 -0.0829694 -0.014273286
-0.03673777 0.025845958 -0.11483361 -0.052626077 -0.080205455 0.023537548 -0.05747576 0.026438087
-0.00055880984 -0.041046593 -0.05475848 -0.07649141 -0.01256684 -0.01420072 -0.02105311 0.0017601427
-0.121054344 -0.12122951 -0.07698646 -0.0073565003 0.007759344 -0.009737149 -0.0925891 -0.07764811
-0.06758725 -0.11353379 -0.11456015 -0.086793646 -0.06674829 -0.08171019 -0.0051850723 0.022806432
0.03841764 -0.10330032 0.030240934 0.029775219 0.03754729 -0.019708917 0.008696237 -0.1392523
-0.00305239 0.009611215 0.0368936 -0.13988009 0.027229493 -0.05211992 0.022962088 -0.060530826
-0.02122901 -0.004506549 -0.047736865 -0.028773712 -0.07023506 -0.05142633 0.016394155 0.05963791
-0.036709614 0.04665922 0.037029814 -0.065231055 -0.088048756 -0.07810815 0.00016890481 -0.00030553786
0.001142517 0.010699157 -0.074732065 -0.056016333 -0.084252216 -0.06174097 0.10019973 -0.078912005
-0.03725006 -0.0058279783 -0.09127497 -0.07523138 0.03261846 -0.023697846 -0.11089397 -0.010935211
-0.014853586 -0.028666247 -0.00975718 -0.10343377 0.07145268 -0.110447116 0.0006346574 -0.0129324375
-0.09887082 0.0261133 -0.14019597 -0.021071682 0.031073261 0.027674472 -0.08325082 0.0062311143
0.047659714 -0.07758356 0.015384132 -0.0674274 -0.046399675 -0.12077907 0.013628124 -0.024682831
0.032534055 0.01903429 0.34545574 -0.10406487 -0.2889285 -0.23992346 -0.06721899 0.0041425857
-0.09775542 -0.3196137 -0.1825328 -0.18867941 -0.24875692 0.048098907 -0.07722476 0.0771972
-0.0855985 0.08782613 0.014603587 0.009871297 0.02607508 -0.05119893 0.18950616 -0.22559975
-0.5168937 -0.04253553 -0.04650083 -0.11166834 -0.08058542 -0.39987028 -0.034454428 0.07532199
0.116156794 -0.03219811 -0.08291315 0.034643546 0.15022814 0.02673898 -0.25728834 -0.13179256
-0.053166747 0.027889421 -0.15844436 -0.13660203 0.1256543 -0.09977161 -0.05123473 0.2722745
0.04583773 0.0973692 -0.5254915 0.118021436 0.11997508 -0.04631472 0.12568113 0.101697885
0.34605613 -0.20552456 -0.25447363 0.05758684 0.0057780184 0.13832915 0.16519505 0.04689634
0.07570997 0.13099395 0.056476265 0.18264848 0.16962782 0.082584105 0.15890962 -0.10264184
0.1619294 0.11324797 0.02076137 0.39489087 -0.03133284 0.10446639 0.034346502 0.15193707
-0.02453597 -0.051783174 -0.056345865 0.010694861 0.013665762 0.041588027 0.15119433 -0.10350223
-0.08424637 -0.3162203 -0.114805855 -0.023751425 0.33400828 0.055181075 -0.014293668 -0.514655
0.12989071 -0.06893721 0.094146565 0.10584631 0.24993037 -0.013903581 -0.13126746 0.053029057
-0.045526158 -0.0304983 -0.13301235 0.10464796 -0.033644397 -0.07854839 0.02033446 0.08090737
-0.026175005 -0.23576978 -0.052277625 0.112170674 0.02221752 -0.119774334 0.13043511 0.19714631
-0.25071326 -0.06289132 0.09242707 0.049691245 -0.24618779 0.096174456 -0.4172499 0.006412335
00000000: c20d e9bd 2674 8fbd 713b b7bd f25e b33c
00000010: 02c0 713d aae6 b83b 303c ddbc c91e fa3b
00000020: 2f6e 593d 6b80 d83c 2446 c23c a908 5bbb
00000030: 6d05 e73c a875 cbbd 312d f9bd 2603 eebb
00000040: 2f87 1fbc 53ee abbd 0ab6 b9bd e543 e5bd
00000050: d666 6f3d c53e c53c dceb a9bd 80da 69bc
00000060: 587a 16bd e7ba d33c e22d ebbd 718e 57bd
00000070: c242 a4bd d1d1 c03c b46b 6bbd b094 d83c
00000080: 187d 12ba 7920 28bd 6e4a 60bd 87a7 9cbd
00000090: 26e5 4dbc 23aa 68bc 9277 acbc 97b4 e63a
000000a0: 57eb f7bd 2d47 f8bd 14ab 9dbd cc0e f1bb
000000b0: 1842 fe3b 9088 1fbc 5b9f bdbd f905 9fbd
000000c0: 2f6b 8abd 6784 e8bd 839e eabd dec0 b1bd
000000d0: 54b3 88bd ac57 a7bd 8ae7 a9bb 8ed4 ba3c
000000e0: d15b 1d3d 1e8f d3bd d6bb f73c 29eb f33c
000000f0: 30cb 193d 9874 a1bc a97a 0e3c 2898 0ebe
00000100: 9b0a 48bb 5c78 1d3c be1d 173d ba3c 0fbe
00000110: 6310 df3c b27b 55bd fd1a bc3c 2cef 77bd
00000120: 76e8 adbc acab 93bb bb87 43bd d9b6 ebbc
00000130: 66d7 8fbd 6aa4 52bd 094d 863c e246 743d
00000140: d25c 16bd bd1d 3f3d 93ac 173d dc97 85bd
00000150: e852 b4bd 2af7 9fbd 0a1c 3139 9930 a0b9
00000160: 82c0 953a 844b 2f3c 200d 99bd 6271 65bd
00000170: 6d8c acbd 19e4 7cbd 8435 cd3d 9e9c a1bd
00000180: 8593 18bd a0f8 bebb 5fee babd e912 9abd
00000190: ef9a 053d fc21 c2bc 611c e3bd 9929 33bc
000001a0: 755c 73bc 7ad5 eabc 94dc 1fbc 16d5 d3bd
000001b0: c855 923d 1932 e2bd 235f 263a 93e2 53bc
000001c0: c97c cabd 8feb d53c 888f 0fbe 859e acbc
000001d0: 5a8d fe3c 93b5 e23c 687f aabd 602e cc3b
000001e0: d536 433d 21e4 9ebd ba0d 7c3c 6017 8abd
000001f0: 960d 3ebd 045b f7bd 7f48 5f3c a633 cabc
00000200: 6e42 053d cded 9b3c 93df b03e f61f d5bd
00000210: 70ee 93be 7fae 75be 1caa 89bd 87be 873b
00000220: fe33 c8bd 68a4 a3be e1e9 3abe 2d35 41be
00000230: 22ba 7ebe 5c03 453d 0428 9ebd 9119 9e3d
00000240: 444e afbd 30de b33d e243 6f3c 38bb 213c
00000250: 689b d53c f8b5 51bd e70d 423e 9f03 67be
00000260: 2553 04bf bc39 2ebd a877 3ebd 5fb2 e4bd
00000270: f809 a5bd ccbb ccbe 1620 0dbd 6a42 9a3d
00000280: 9de3 ed3d 2ae2 03bd 5fce a9bd 64e6 0d3d
00000290: 68d5 193e b50b db3c 4cbb 83be a1f4 06be
000002a0: 60c5 59bd 5b78 e43c 3d3f 22be 67e1 0bbe
000002b0: 85ab 003e 0f55 ccbd 82db 51bd 9067 8b3e
000002c0: 58c0 3b3d 8169 c73d 9c86 06bf 39b5 f13d
000002d0: 7fb5 f53d 81b4 3dbd 8eb2 003e fb46 d03d
000002e0: 452e b13e 0875 52be 5e4a 82be 2ee0 6b3d
000002f0: 8855 bd3b 28a6 0d3e e428 293e 6016 403d
00000300: d40d 9b3d 4723 063e a853 673d 3408 3b3e
00000310: eab2 2d3e db21 a93d 34b9 223e e335 d2bd
00000320: d2d0 253e 8dee e73d c013 aa3c 232f ca3e
00000330: dd56 00bd 7af2 d53d ebae 0c3d 6495 1b3e
00000340: a9ff c8bc 981a 54bd ecca 66bd 8039 2f3c
00000350: 5ce6 5f3c 3558 2a3d b0d2 1a3e faf8 d3bd
00000360: 5c89 acbd a1e7 a1be 551f ebbd 5992 c2bc
00000370: 2203 ab3e 8d05 623d fd2f 6abc 6ec0 03bf
00000380: 1202 053e f42e 8dbd eacf c03d f3c5 d83d
00000390: bfed 7f3e d8cb 63bc fa6a 06be ff34 593d
000003a0: a379 3abd 92d7 f9bc 6434 08be ab51 d63d
000003b0: b5ce 09bd fadd a0bd 7494 a63c c3b2 a53d
000003c0: f76c d6bc a26d 71be 1021 56bd bdb9 e53d
000003d0: 8401 b63c 3f4c f5bd c890 053e b9e0 493e
000003e0: 7d5d 80be 2acd 80bd 674a bd3d 0c89 4b3d
000003f0: a718 7cbe 1df7 c43d c7a1 d5be 911e d23b

hidden_list_adv.0.bias f4 [256]
-0.07822425 -0.07727799 -0.07003044 -0.113356926 -0.058415312 -0.03941202 -0.0933919 -0.010039136
0.012770587 -0.08147808 -0.06692334 0.02726307 -0.07188869 -0.12650967 0.085580885 -0.027013637
-0.09370322 -0.06294696 -0.14800471 0.036630265 -0.112089984 -0.015631901 -0.052923597 -0.045898113
-0.017726073 -0.09983945 0.059073705 -0.106043495 -0.12458456 -0.11591577 -0.021608826 -0.013447988
-0.18781196 -0.044668917 0.005386024 -0.02094758 -0.10347048 -0.01728 -0.10616551 -0.123441726
-0.07131802 0.0075790714 0.16820283 -0.026949992 0.0978758 0.06708283 -0.09424097 -0.09531824
-0.08940332 -0.12609042 -0.10433769 0.17616618 -0.04735565 -0.08551935 0.047048777 -0.07645048
-0.063937336 -0.060733855 -0.03793913 0.1536861 -0.08310918 -0.021264851 -0.08827312 -0.05063948
0.10105028 -0.16204415 -0.10906718 -0.014148161 -0.12878065 0.010626695 -0.025599996 -0.123908766
0.008060661 -0.06593284 -0.0050442475 0.1128583 0.039811507 -0.13668701 -0.029859029 -0.066059686
-0.16645488 -0.07641289 -0.015773974 0.19732936 0.063836016 0.15277253 -0.1343207 -0.02370979
-0.057816263 0.022672882 -0.030788975 -0.09267262 0.08471096 -0.008480113 0.10548627 -0.07478812
-0.0625807 -0.04464712 -0.07519254 -0.05534596 -0.089423455 0.01672996 0.17113443 0.049802244
0.076211974 -0.0036774673 -0.018034438 -0.052622516 -0.13335754 -0.054088574 -0.13927428 -0.07696512
0.07932699 -0.10059706 -0.034691103 -0.0807112 0.05139383 0.12134903 -0.14800733 -0.014133286
-0.012134242 -0.047475465 -0.13109742 -0.08092437 -0.061950747 -0.102430895 0.108929545 0.02081724
-0.07620742 -0.10366584 -0.14945132 0.055875715 -0.084538914 0.09865629 -0.07294834 -0.1057034
-0.099255346 -0.10146292 0.04399655 -0.0009837861 0.013552507 -0.028559275 -0.035141036 -0.05162239
0.09902619 -0.074686885 -0.096057795 0.0729505 -0.20096135 -0.06703985 -0.19736728 -0.0255234
0.011271113 -0.12843017 -0.04458896 0.039872922 0.026397895 -0.10943337 -0.067062095 -0.09866312
-0.01647034 -0.053654 -0.08691378 -0.083863944 0.08215352 -0.092665315 -0.07738055 -0.064568765
-0.10873466 0.051151425 -0.007794478 -0.17843568 -0.06245397 -0.18752427 0.0025227596 -0.11454207
-0.14738597 0.039398946 -0.000836691 0.054557286 -0.05883107 0.099825196 -0.06878765 0.11828377
-0.104859956 -0.03788095 -0.010442747 -0.037730075 -0.07479606 -0.044037245 -0.020691583 -0.14982577
0.025902687 -0.038000103 -0.09559417 0.14345166 -0.0131279435 -0.10675159 0.002678268 -0.030176632
-0.007390483 -0.09791035 -0.031981688 -0.12484506 -0.07457382 -0.11966017 -0.04147966 0.097015314
-0.11089784 -0.079002365 0.03393929 -0.14505982 0.035253815 -0.0036460839 -0.026955273 -0.04106583
-0.12696442 0.010322199 -0.12551229 -0.0069222497 -0.13917053 -0.1327366 -0.02333367 0.019201016
0.071454905 0.03707216 -0.09608547 -0.16345456 -0.1408063 -0.081637666 -0.0062715365 -0.13214855
-0.16434361 -0.15543284 0.035230454 -0.08002779 -0.036139265 -0.08836885 0.066982634 -0.1355668
-0.06610678 0.074761674 -0.054290544 0.003599434 -0.097247235 -0.12986563 0.0683912 -0.15033743
-0.046519067 -0.09444579 0.0023040096 -0.07510796 -0.049211655 -0.06594461 -0.20184977 0.015567682
00000000: 0934 a0bd ec43 9ebd 1f6c 8fbd ad27 e8bd
00000010: e544 6fbd 806e 21bd 4144 bfbd 307b 24bc
00000020: b93b 513c fbdd a6bd 1b0f 89bd cd56 df3c
00000030: 613a 93bd c08b 01be 0845 af3d b44b ddbc
00000040: 79e7 bfbd 56ea 80bd 8c8e 17be 9e09 163d
00000050: 6f8f e5bd 790e 80bc 6ac6 58bd a9ff 3bbd
00000060: 4536 91bc a078 ccbd 45f7 713d 552d d9bd
00000070: 3126 ffbd 3f65 edbd fe04 b1bc f354 5cbc
00000080: c751 40be c1f6 36bd 3e7d b03b 429a abbc
00000090: 55e8 d3bd c98e 8dbc 4e6d d9bd 04cf fcbd
000000a0: 2f0f 92bd dc59 f83b 5d3d 2c3e 3bc6 dcbc
000000b0: 1c73 c83d b962 893d 6901 c1bd 3636 c3bd
000000c0: 1619 b7bd d91d 01be 00af d5bd e864 343e
000000d0: 00f8 41bd c524 afbd 38b6 403d 1292 9cbd
000000e0: 94f1 82bd 10c4 78bd 1066 1bbd e45f 1d3e
000000f0: 2535 aabd a033 aebc 8ac8 b4bd 586b 4fbd
00000100: 73f3 ce3d e7ee 25be 9d5e dfbd b0cd 67bc
00000110: 13df 03be 971b 2e3c 15b7 d1bc e1c3 fdbd
00000120: dd10 043c cc07 87bd 374a a5bb 4122 e73d
00000130: 6411 233d aef7 0bbe ec9a f4bc 4d4a 87bd
00000140: 2673 2abe 5c7e 9cbd 6c38 81bc b510 4a3e
00000150: 75bc 823d 6770 1c3e 5e8b 09be 093b c2bc
00000160: bfd0 6cbd 7bbc b93c 2939 fcbc 25cb bdbd
00000170: f17c ad3d 2cf0 0abc 2f09 d83d 842a 99bd
00000180: 4f2a 80bd e6df 36bd 8cfe 99bd 72b2 62bd
00000190: a523 b7bd 450d 893c dd3d 2f3e 70fd 4b3d
000001a0: 0615 9c3d aa01 71bb f5bc 93bc b58a 57bd
000001b0: e18e 08be fb8b 5dbd eb9d 0ebe e49f 9dbd
000001c0: 3076 a23d d505 cebd 4218 0ebd ea4b a5bd
000001d0: 5682 523d d785 f83d 3c8f 17be 4c8f 67bc
000001e0: b3ce 46bc a275 42bd 673e 06be adbb a5bd
000001f0: 11c0 7dbd 4ac7 d1bd 7416 df3d eb88 aa3c
00000200: a312 9cbd c24e d4bd c409 19be efdd 643d
00000210: bd22 adbd 4f0c ca3d f065 95bd 067b d8bd
00000220: 6346 cbbd cbcb cfbd ba35 343d 62f2 80ba
00000230: 560b 5e3c 24f5 e9bc 0cf0 0fbd 0072 53bd
00000240: 3ece ca3d 70f5 98bd f3b9 c4bd 1267 953d
00000250: d0c8 4dbe 304c 89bd a61a 4abe 7316 d1bc
00000260: 79aa 383c 3383 03be eaa2 36bd ca51 233d
00000270: 6640 d83c 9a1e e0bd da57 89bd e40f cabd
00000280: ceec 86bc 4cc4 5bbd daff b1bd dcc0 abbd
00000290: 1b40 a83d 50c7 bdbd b279 9ebd a13c 84bd
000002a0: 47b0 debd 2884 513d d268 ffbb d8b7 36be
000002b0: bccf 7fbd 5d06 40be e254 253b 0895 eabd
000002c0: 59ec 16be ca60 213d 6255 5bba 7677 5f3d
000002d0: d9f8 70bd 2771 cc3d 8ae0 8cbd c33e f23d
000002e0: d1c0 d6bd 0e29 1bbd 0e18 2bbc da8a 1abd
000002f0: ad2e 99bd 6660 34bd 6581 a9bc ed6b 19be
00000300: df31 d43c ffa5 1bbd e0c6 c3bd fee4 123e
00000310: 9616 57bc 94a0 dabd e185 2f3b fc34 f7bc
00000320: dd2b f2bb 3985 c8bd 3bff 02bd c4ae ffbd
00000330: 29ba 98bd 6410 f5bd 93e6 29bd f7af c63d
00000340: 681e e3bd fecb a1bd ed03 0b3d 908a 14be
00000350: 4e66 103d 23f3 6ebb 4ed1 dcbc a534 28bd
00000360: f602 02be 711e 293c 4b86 00be 0ad4 e2bb
00000370: b882 0ebe 1aec 07be 4126 bfbc 734b 9d3c
00000380: f356 923d fad8 173d 75c8 c4bd a260 27be
00000390: 872f 10be a631 a7bd 7681 cdbb f351 07be
000003a0: b149 28be c929 1fbe cf4d 103d 9ce5 a3bd
000003b0: c406 14bd bafa b4bd 312e 893d 06d2 0abe
000003c0: fe62 87bd a61c 993d c35f 5ebd 7be4 6b3b
000003d0: 8f29 c7bd 7ffb 04be af10 8c3d 0ef2 19be
000003e0: c78a 3ebd cb6c c1bd defe 163b 34d2 99bd
000003f0: 2992 49bd f80d 87bd b5b1 4ebe 970f 7f3c

hidden_list_adv.1.weight f4 [128, 256]
-0.030245055 -0.071463354 -0.00060836505 -0.059677072 -0.020656727 -0.005738924 -0.058106083 0.041425165
-0.0033111656 -0.024842655 0.043811053 0.08342495 -0.09581759 0.048428096 -0.072327524 -0.086482115
0.09825184 -0.08808846 0.048946932 -0.03480736 -0.073119864 0.015833037 -0.044605013 -0.07527166
-0.020682039 -0.005157716 -0.0032384018 0.0022137612 0.029004166 -0.11028392 -0.008444763 -0.05251114
0.009775533 -0.010019564 0.14019254 -0.023468869 -0.018663859 0.01400907 -0.040544033 0.019053588
0.052756056 -0.008978342 -0.018737407 -0.03162222 -0.15144205 0.004804228 -0.030668912 -0.0017639127
0.026422938 0.011599268 -0.09464456 -0.13215086 -0.045812953 0.01723841 -0.07613552 0.03757978
-0.051191516 -0.085579485 0.021267937 -0.04421908 0.026453197 0.043978997 -0.044688746 0.064570956
-0.048051354 -0.04803719 -0.08557102 -0.020316832 0.032237798 -0.08863732 0.0002773694 0.053777996
-0.014902074 -0.03918558 -0.09554506 -0.009004578 0.038226474 0.0842652 0.025078753 0.005282747
0.0013093681 -0.028308379 -0.061680585 -0.11700732 -0.14122608 -0.110210404 0.025308477 -0.09656481
0.050991938 -0.059563845 0.101784416 -0.09147802 0.023327287 0.055688795 -0.16521302 0.040111873
0.008430548 0.004433232 0.004963656 0.040928043 -0.08771918 0.061440695 -0.048949953 0.009872557
-0.07457763 0.020831894 0.010656468 0.02152727 -0.05591912 -0.01044038 0.06067741 -0.11308989
-0.041069552 -0.007802753 0.02025708 0.06734131 -0.056489494 -0.115988456 -0.00089404016 0.0029167535
-0.1574178 -0.07710868 -0.06875964 -0.024665397 0.08064484 -0.0059955437 -0.028241541 -0.002584962
0.123364456 -0.089778066 -0.054228723 -0.0027174554 0.01121306 0.04231181 0.05132444 -0.05118287
-0.0071652234 -0.049049374 -0.09167257 -0.033881176 -0.03789471 -0.09526096 0.07485117 0.045947317
-0.07297996 0.044094767 -0.038950175 -0.08151935 -0.032727897 0.00073434325 -0.032776512 -0.02127192
-0.06441969 0.049124468 -0.14287613 -0.060432795 -0.058032624 0.013971952 -0.056117047 0.014514995
-0.0100646345 0.011630325 0.031437498 -0.027559523 -0.030509247 -0.22256067 -0.006254216 0.04383088
-0.0020154763 -0.05994955 -0.045402024 0.0052564633 -0.002305207 0.0020735625 -0.02411517 -0.03086151
0.04798429 0.032858048 -0.010402306 -0.031812206 0.023558315 -0.081986316 0.00011289254 0.0403959
-0.017910086 -0.030597093 0.020383557 0.03114592 -0.017980918 -0.030186415 -0.0441678 -0.06402664
0.048335396 -0.06234982 -0.0336497 -0.15056929 -0.052583434 0.107271746 0.06308198 -0.02227613
-0.08084498 -0.05974057 0.039422244 0.0017277139 -0.006814077 0.14480431 -0.0022763116 -0.06122234
-0.036407575 -0.064462535 -0.07311453 -0.009518011 0.008262764 -0.02882116 -0.05088728 0.101967
0.055547472 -0.11372759 -0.045943417 -0.044369515 0.020175118 -0.09510242 -0.06792904 -0.063249305
-0.027118178 0.016515722 -0.04776396 -0.018843055 0.013442399 -0.040056646 0.0006556479 0.13866831
0.11751402 -0.030439548 0.017331053 0.0049862294 -0.05598314 -0.013228072 -0.055135656 0.019899357
0.024444181 -0.04358382 -0.11396812 -0.06015084 -0.04118277 -0.0014670006 -0.10305795 0.023258952
0.0675785 -0.03245391 -0.009782307 -0.06699102 0.018993108 0.015407157 0.02655053 -0.04040167
00000000: 7ac4 f7bc 615b 92bd b07a 1fba f26f 74bd
00000010: 4c38 a9bc 950d bcbb a500 6ebd 6fad 293d
00000020: 2400 59bb d382 cbbc 3873 333d b3da aa3d
00000030: 033c c4bd 8a5c 463d 7420 94bd 891d b1bd
00000040: 4338 c93d b967 b4bd 947c 483d 2a92 0ebd
00000050: debf 95bd 49b4 813c bfb3 36bd 0728 9abd
00000060: 616d a9bc 0f02 a9bb 5e3b 54bb c014 113b
00000070: 259a ed3c 89dc e1bd e75b 0abc ec15 57bd
00000080: 8f29 203c 1929 24bc a28e 0f3e c941 c0bc
00000090: f3e4 98bc 4c86 653c 8011 26bd 4516 9c3c
000000a0: bc16 583d e519 13bc 317f 99bc 4d86 01bd
000000b0: a013 1bbe c96c 9d3b 5f3d fbbc 1733 e7ba
000000c0: eb74 d83c db0a 3e3c 02d5 c1bd 8e52 07be
000000d0: 5da6 3bbd 9137 8d3c f1ec 9bbd 41ed 193d
000000e0: 32ae 51bd 4c44 afbd 193a ae3c 111f 35bd
000000f0: 60b4 d83c 5223 343d 8c0b 37bd c73d 843d
00000100: 7fd1 44bd a5c2 44bd dc3f afbd 7c6f a6bc
00000110: c80b 043d 7c87 b5bd e46b 9139 5146 5c3d
00000120: d427 74bc 0f81 20bd 21ad c3bd f087 13bc
00000130: 5d93 1c3d 3c93 ac3d f571 cd3c e51a ad3b
00000140: 1a9f ab3a f9e6 e7bc c8a4 7cbd 89a1 efbd
00000150: 929d 10be feb5 e1bd b953 cf3c c5c3 c5bd
00000160: ecdc 503d 38f9 73bd 5974 d03d d458 bbbd
00000170: de18 bf3c ef19 643d 9a2d 29be 594c 243d
00000180: 4820 0a3c a544 913b 2aa6 a23b 2aa4 273d
00000190: 1da6 b3bd 3da9 7b3d bf7f 48bd 81c0 213c
000001a0: 28bc 98bd a6a7 aa3c 7798 2e3c f559 b03c
000001b0: 720b 65bd 210e 2bbc e088 783d ac9b e7bd
000001c0: 8c38 28bd 3cae ffbb 2df2 a53c 3eea 893d
000001d0: 8761 67bd 5b8b edbd 055e 6aba 0127 3f3b
000001e0: 2232 21be 28eb 9dbd dbd1 8cbd 160f cabc
000001f0: 1f29 a53d 4476 c4bb ce5a e7bc 7768 29bb
00000200: 81a6 fc3d 90dd b7bd f01e 5ebd 5617 32bb
00000210: fbb6 373c 264f 2d3d 9339 523d 21a5 51bd
00000220: 40ca eabb ffe7 48bd d4be bbbd fdc6 0abd
00000230: 7c37 1bbd 2e18 c3bd 924b 993d 4133 3c3d
00000240: 8476 95bd b79c 343d 388a 1fbd 9ef3 a6bd
00000250: b00d 06bd f180 403a aa40 06bd 7342 aebc
00000260: 78ee 83bd bd36 493d 1f4e 12be 6188 77bd
00000270: 9eb3 6dbd 9dea 643c fdda 65bd 4dd0 6d3c
00000280: 23e6 24bc 1e8d 3e3c 9bc4 003d 82c4 e1bc
00000290: 87ee f9bc f2e6 63be 2bf0 ccbb 0288 333d
000002a0: 1516 04bb a98d 75bd 79f7 39bd 693e ac3b
000002b0: f512 17bb 9be4 073b 2d8d c5bc 47d1 fcbc
000002c0: 2d8b 443d 2996 063d 6f6e 2abc 844d 02bd
000002d0: 5efd c03c 71e8 a7bd b9c0 ec38 2c76 253d
000002e0: 2cb8 92bc c1a6 fabc 6bfb a63c ba25 ff3c
000002f0: b84c 93bc 8049 f7bc 4ce9 34bd 6620 83bd
00000300: 56fb 453d 8662 7fbd 45d4 09bd d62e 1abe
00000310: ba61 57bd 4ab1 db3d 2031 813d 6e7c b6bc
00000320: 0e92 a5bd 87b2 74bd 3879 213d 7574 e23a
00000330: 9f48 dfbb 9547 143e 2c2e 15bb 47c4 7abd
00000340: 1c20 15bd ef04 84bd 12bd 95bd 6ef1 1bbc
00000350: 8b60 073c 5a1a ecbc 2e6f 50bd 13d4 d03d
00000360: bf85 633d 03ea e8bd 2a2f 3cbd cfbc 35bd
00000370: 4a46 a53c 0fc5 c2bd 611e 8bbd da88 81bd
00000380: f126 debc fb4b 873c 24a4 43bd c05c 9abc
00000390: 823d 5c3c 7012 24bd c9df 2b3a 11ff 0d3e
000003a0: 31ab f03d 5c5c f9bc daf9 8d3c 8663 a33b
000003b0: 944e 65bd 8eba 58bc edd5 61bd fa03 a33c
000003c0: 2a3f c83c f384 32bd 1e68 e9bd ba60 76bd
000003d0: 44af 28bd 5f48 c0ba 0c10 d3bd 8f89 be3c
000003e0: 9966 8a3d 64ee 04bd f845 20bc 9732 89bd
000003f0: 6f97 9b3c 4d6e 7c3c 7f80 d93c 397c 25bd

hidden_list_adv.1.bias f4 [128]
-0.0660355 -0.079354055 -0.012054031 -0.13219722 -0.091020174 -0.24521855 0.03826454 -0.09129823
0.22889024 -0.01832813 0.10828024 -0.11274035 -0.06638634 -0.05197682 -0.15397452 -0.16503684
-0.08142237 0.008131752 0.20992324 -0.13700816 -0.1165718 -0.081126004 -0.07808796 0.09836721
-0.08862331 -0.024944967 -0.0890349 -0.006874819 -0.059894025 -0.026962604 -0.05426428 -0.07143003
-0.123596385 -0.14114825 -0.0726282 -0.034778085 -0.11517083 -0.10210914 -0.15948299 -0.10018392
-0.20446661 -0.059463207 -0.089776196 -0.07961372 -0.04735097 -0.12220299 -0.005560354 -0.04552409
-0.07586502 -0.13050021 0.0092911 0.088638306 -0.16566211 -0.05558857 -0.035886653 -0.12288403
-0.17698981 -0.11440505 -0.022133289 -0.033204455 -0.09736771 -0.0631164 -0.00075360306 -0.029144317
-0.19379544 -0.06828604 -0.1192035 -0.20072944 -0.12881437 -0.123447284 -0.25528863 -0.0861343
-0.03510768 -0.050492205 0.010082641 -0.08786389 -0.06639918 -0.06578863 0.018736638 0.055945534
-0.22283107 0.22310798 -0.08521105 -0.06955919 -0.09679217 -0.007043523 0.12449701 -0.021900788
-0.10989483 -0.100984804 -0.17148769 -0.11543239 -0.049681738 -0.11481426 -0.07272515 -0.091871165
-0.107534185 -0.08467797 0.123956665 -0.02195249 -0.056762196 0.15633386 -0.069662824 -0.013386574
-0.08402605 -0.17757347 -0.19758627 -0.11691976 -0.14803791 -0.07825795 -0.043133613 -0.13815266
-0.124539405 -0.15375604 -0.08097369 -0.034094147 -0.09572406 -0.17620377 0.008475764 -0.08818656
-0.07427332 -0.111801885 -0.04939653 -0.045545854 -0.07080237 0.13100795 -0.113052376 -0.17898887
00000000: 9f3d 87bd 6184 a2bd 457e 45bc b55e 07be
00000010: c968 babd 921a 7bbe 47bb 1c3d 91fa babd
00000020: 3462 6a3e e024 96bc 08c2 dd3d 6ae4 e6bd
00000030: 90f5 87bd a5e5 54bd 7fab 1dbe 6bff 28be
00000040: c6c0 a6bd 0a3b 053c 1ef6 563e de4b 0cbe
00000050: 32bd eebd 6425 a6bd 95ec 9fbd bf74 c93d
00000060: 2380 b5bd 6359 ccbc ee57 b6bd 2946 e1bb
00000070: 7053 75bd aee0 dcbc 3944 5ebd e849 92bd
00000080: 1a20 fdbd 2b89 10be 18be 94bd 7773 0ebd
00000090: afde ebbd 991e d1bd 824f 23be 3a2d cdbd
000000a0: b25f 51be b18f 73bd 95dc b7bd 850c a3bd
000000b0: 17f3 41bd 9045 fabd a133 b6bb 7877 3abd
000000c0: 1f5f 9bbd d9a1 05be b339 183c 0088 b53d
000000d0: 54a3 29be d7b0 63bd e2fd 12bd 9faa fbbd
000000e0: d13c 35be 324d eabd df50 b5bc 6501 08bd
000000f0: b968 c7bd 2c43 81bd 728d 45ba 10c0 eebc
00000100: 5072 46be 8dd9 8bbd f720 f4bd 058c 4dbe
00000110: eae7 03be eed1 fcbd 31b5 82be 2e67 b0bd
00000120: 12cd 0fbd ead0 4ebd a931 253c fcf1 b3bd
00000130: 4bfc 87bd 30bc 86bd 947d 993c 2527 653d
00000140: d42d 64be 6b76 643e 2283 aebd 0c75 8ebd
00000150: f93a c6bd 5acd e6bb 4af8 fe3d 4869 b3bc
00000160: 8a10 e1bd 1fd1 cebd 789a 2fbe d167 ecbd
00000170: 147f 4bbd bd23 ebbd ecf0 94bd f326 bcbd
00000180: e23a dcbd a56b adbd fedc fd3d b5d5 b3bc
00000190: 7a7f 68bd fc15 203e 62ab 8ebd 5c53 5bbc
000001a0: da15 acbd d2d5 35be 0e54 4abe a173 efbd
000001b0: 4097 17be b445 a0bd dfac 30bd e477 0dbe
000001c0: 840e ffbd 3972 1dbe 89d5 a5bd 4ea6 0bbd
000001d0: fa0a c4bd c36e 34be eedd 0a3c 289b b4bd
000001e0: 9c1c 98bd 63f8 e4bd 0454 4abd 4a8e 3abd
000001f0: d500 91bd f326 063e 0188 e7bd dc48 37be

fc_out_adv.weight f4 [4, 128]
0.08714916 0.011477903 0.12227507 0.008299561 -0.027826525 -0.09762149 0.123846345 -0.07259571
0.10084877 -0.06800109 0.0153590245 0.02327295 -0.010654216 -0.077406704 -0.023528662 0.17703526
0.055712864 -0.108812295 0.07433375 0.16715817 0.021662813 0.032491922 0.00237753 0.006125903
0.022692023 0.15937 0.04905275 0.026122117 -0.04343197 0.03986124 0.036269434 -0.15826404
-0.047867298 0.007982528 -0.12301115 -0.11390699 -0.021400133 -0.057099774 0.10841678 0.062675394
-0.007533556 -0.021109242 0.0634275 -0.16476911 -0.10540452 0.01252205 0.06199825 -0.0642676
0.10301962 -0.028120622 0.17778276 -0.024632933 -0.049822316 0.015635196 -0.020476485 0.086910784
-0.1141864 0.035319354 0.10722854 -0.025899954 -0.18407676 0.046339393 0.025640238 -0.032025814
-0.25885203 0.025190376 -0.041330487 -0.24705338 -0.014616229 0.026429867 0.008709069 -0.057911564
-0.024433514 0.021317175 -0.017241107 -0.02311526 -0.0044085714 -0.015651837 0.046950884 0.07336766
-0.050357334 0.0810019 0.0027814084 -0.011313869 0.02867529 0.08436786 0.04995872 0.08360446
0.05139618 -0.0012135842 -0.02204328 -0.087468326 -0.02138067 -0.017755574 -0.029517893 -0.056421112
0.032383732 0.07802279 0.016383082 0.0018315946 -0.0030225022 0.01994515 -0.027638016 -0.0030741084
-0.024371736 0.23526467 -0.07143827 0.034410097 -0.2555182 0.035632115 -0.18501022 0.01451784
0.05624068 -0.08196265 0.09357197 -0.029640444 0.001095118 0.07902592 0.06668781 0.061065525
0.102777906 0.14941594 0.009437346 -0.030103426 0.08565169 -0.0066564092 0.21782376 0.03591526
0.07172972 0.1013556 -0.007953398 0.018930152 0.053446256 0.24055728 -0.08676287 0.06246338
-0.017549438 -0.023809297 0.20264724 0.00770987 0.009343368 -0.05010861 0.15052912 0.17827211
0.03384403 0.16148323 0.028445136 -0.07219332 -0.05448451 0.041531805 0.0013856279 0.079648785
0.015517017 0.18166585 -0.003870211 -0.12594816 0.054767117 0.10702174 -0.01952518 0.1199287
-0.02673269 0.059619166 0.009952094 -0.07713081 0.06560311 -0.1502583 -0.026235707 -0.06661945
-0.2022629 -0.009383639 -0.08232593 0.16473062 0.11061949 -0.00443993 -0.22009452 -0.1471164
-0.012075177 0.11867392 0.008360959 0.009051221 -0.12962086 -0.026379278 -0.089749716 0.13959491
0.20735627 0.12627116 -0.08304241 -0.053522356 -0.08942945 0.030861475 -0.16100073 -0.45357162
0.024886621 0.030739276 -0.038133245 0.14178206 -0.07296226 0.04887817 0.089581944 -0.076663755
-0.049901854 0.017386585 -0.013646392 0.022170022 0.04647923 0.00643108 0.12814388 -0.20028315
0.071241766 -0.017938107 -0.016316049 -0.045188468 -0.0104377465 -0.11640342 -0.022659818 -0.09185091
0.029268004 -0.16886798 0.040126756 0.15555257 -0.0121413935 -0.039623685 -0.037977967 0.06255934
-0.067893095 -0.1979301 0.0862083 -0.34347424 0.03413721 0.21955134 -0.021582674 0.13610163
0.0022942557 0.08034304 0.13804674 0.066502124 0.18884514 0.09953456 0.051816214 -0.061932553
0.027113268 -0.01622783 -0.015490864 -0.06036857 0.02634883 -0.027761841 -0.28710014 0.0879628
-0.059554953 0.11093668 0.032662038 0.074083365 0.041676197 0.17539752 0.012323392 0.0842064
00000000: 427b b23d d10d 3c3c 5a6b fa3d e2fa 073c
00000010: 74f4 e3bc c7ed c7bd 27a3 fd3d 0fad 94bd
00000020: cd89 ce3d 2844 8bbd 6ba4 7b3c eaa6 be3c
00000030: 058f 2ebc 6887 9ebd 2ebf c0bc bb48 353e
00000040: 2c33 643d fbd8 debd 4b3c 983d 832b 2b3e
00000050: 3676 b13c 4016 053d 56d0 1b3b cdbb c83b
00000060: 9fe4 b93c e431 233e 89eb 483d 0dfe d53c
00000070: b9e5 31bd 8a45 233d 428f 143d f80f 22be
00000080: 8010 44bd 26c9 023c 45ed fbbd 1148 e9bd
00000090: 554f afbc 74e1 69bd 9e09 de3d f55b 803d
000000a0: 0cdc f6bb 4aed acbc 47e6 813d 3cb9 28be
000000b0: 53de d7bd 4929 4d3c e1f1 7d3d bb9e 83bd
000000c0: f3fb d23d 385d e6bc af0c 363e 01cb c9bc
000000d0: 7c12 4cbd 6215 803c 4dbe a7bc 48fe b13d
000000e0: 8fda e9bd 07ab 103d a39a db3d 242c d4bc
000000f0: 9e7e 3cbe 60ce 3d3d 7a0b d23c 802d 03bd
00000100: 4188 84be 0c5c ce3c 284a 29bd 90fb 7cbe
00000110: e878 6fbc 7383 d83c 7cb0 0e3c ad34 6dbd
00000120: cb28 c8bc 5ba1 ae3c 393d 8dbc 375c bdbc
00000130: c775 90bb 4838 80bc 924f 403d c941 963d
00000140: 7e43 4ebd 53e4 a53d 4a48 363b ce5d 39bc
00000150: 71e8 ea3c 0ec9 ac3d 84a1 4c3d d138 ab3d
00000160: cd84 523d 2111 9fba 1c94 b4bc 9822 b3bd
00000170: 8426 afbc 2374 91bc 82cf f1bc d319 67bd
00000180: cea4 043d 6aca 9f3d d035 863c 1e12 f03a
00000190: 2c15 46bb 0364 a33c 1f69 e2bc fb76 49bb
000001a0: 3ca7 c7bc 39e9 703e 3a4e 92bd 9af1 0c3d
000001b0: 48d3 82be fbf2 113d 5273 3dbe 3cdc 6d3c
000001c0: a15c 663d 09dc a7bd a9a2 bf3d 84d0 f2bc
000001d0: 108a 8f3a 57d8 a13d 9e93 883d d81f 7a3d
000001e0: 397d d23d 7e00 193e 199f 1a3c 769b f6bc
000001f0: 276a af3d 021e dabb 310d 5f3e e11b 133d
00000200: 08e7 923d 8693 cf3d f84e 02bc 6813 9b3c
00000210: 76ea 5a3d a654 763e bbb0 b1bd 9ad9 7f3d
00000220: d7c3 8fbc b70b c3bc c282 4f3e 14a3 fc3b
00000230: ed14 193c b03e 4dbd 4e24 1a3e f78c 363e
00000240: 0aa0 0a3d dc5b 253e c605 e93c 17da 93bd
00000250: 262b 5fbd 411d 2a3d f59d b53a e71e a33d
00000260: 163b 7e3c 9d06 3a3e 5ea3 7dbb 8ef8 00be
00000270: 7c53 603d 372e db3d 45f3 9fbc 2e9d f53d
00000280: 84fe dabc 3a33 743d 1c0e 233c c2f6 9dbd
00000290: ec5a 863d 50dd 19be 44ec d6bc c76f 88bd
000002a0: 011e 4fbe d6bd 19bc 7f9a a8bd 25af 283e
000002b0: 798c e23d d57c 91bb 7560 61be aea5 16be
000002c0: f7d6 45bc 500b f33d 67fc 083c 934b 143c
000002d0: 55bb 04be 5b19 d8bc b3ce b7bd f8f1 0e3e
000002e0: 3455 543e 3a4d 013e 2412 aabd 423a 5bbd
000002f0: ca26 b7bd 34d1 fc3c 60dd 24be 8a3a e8be
00000300: 07df cb3c efd0 fb3c 9b31 1cbd 512f 113e
00000310: 3d6d 95bd 7a34 483d bd76 b73d e301 9dbd
00000320: e365 4cbd 506e 8e3c 1e95 5fbc e89d b53c
00000330: 0161 3e3d cfbb d23b 2638 033e 0717 4dbe
00000340: 34e7 913d f0f2 92bc 3ca9 85bc 8b17 39bd
00000350: 1503 2bbc eb64 eebd 15a1 b9bc 541c bcbd
00000360: 74c3 ef3c baeb 2cbe f45b 243d 2c49 1f3e
00000370: b2ec 46bc 724c 22bd c98e 1bbd 1c1f 803d
00000380: 890b 8bbd 30ae 4abe fa8d b03d dbdb afbe
00000390: 76d3 0b3d 11d2 603e 26ce b0bc 3a5e 0b3e
000003a0: 395b 163b e48a a43d 205c 0d3e 4432 883d
000003b0: 9f60 413e c7d8 cb3d 3d3d 543d fdac 7dbd
000003c0: a51c de3c 3af0 84bc 65cd 7dbc 0945 77bd
000003d0: 80d9 d73c cd6c e3bc cafe 92be d725 b43d
000003e0: e5ef 73bd c532 e33d a1c8 053d 05b9 973d
000003f0: a9b4 2a3d 689b 333e 0de8 493c 6874 ac3d

fc_out_adv.bias f4 [4]
-0.013660546 -0.08887218 -0.0209065 0.009146273
00000000: 7cd0 5fbc 9e02 b6bd 1c44 abbc 40da 153c

fc_in_val.weight f4 [128, 37]
-0.06119071 -0.0539253 -0.17169271 -0.13173184 -0.026635207 -0.087246515 -0.28271854 -0.07807307
0.26438174 0.6981364 -0.031149454 -0.19391464 -0.10881565 0.1542976 0.20977883 -0.3477086
0.06966251 0.01427348 0.17785235 0.20667458 -0.02059421 -0.23165761 -0.24030615 0.093768515
0.032581314 -0.108109035 -0.07294901 0.049493402 0.045943417 0.0682575 0.0003462114 -0.2901754
0.057489984 0.39033806 0.4472276 -0.01689582 -0.0089457445 0.065515734 0.05822917 0.10332882
0.10818413 0.061827745 0.048733637 0.09652199 -0.08566351 -0.0001799666 0.020192968 0.3540773
-0.22348462 -0.44244835 -0.1045597 -1.095115 -0.1302682 -0.022597661 0.01329171 -0.09660619
0.15080959 0.08183739 -0.21057165 -0.10764191 -0.40966877 -0.6488625 -0.035742313 0.09381776
0.081269555 0.036116097 -0.1855523 -0.35504884 0.13601117 -0.09474568 0.075348236 -0.14478168
-0.021829635 0.0026505834 -0.06665806 0.029385826 0.19788706 -0.04594104 -0.11795578 -0.6994005
-0.03582092 0.13376524 -0.19017488 -1.6028349 0.076920286 0.052017882 0.21920292 0.24796495
-0.20749916 -0.10948998 0.1914274 0.14122486 0.040889706 -0.2290735 -0.019826058 0.1316276
0.16206062 0.03470193 -0.11812336 0.008184299 0.050369527 0.09295758 -0.27819753 -0.81872874
0.08192632 0.18715024 0.20507398 -0.18445559 -0.6274016 0.02514364 -0.010718303 0.055618986
-0.025006996 0.031978574 -0.033467293 -0.063769944 -0.11653527 0.012124267 0.018464275 -0.038619045
0.0074681714 0.033952 0.013130945 -0.010188369 0.03247655 0.014121177 0.065978594 0.08959333
0.058688927 0.09015511 0.012912786 0.057240568 0.025429728 0.008715307 0.020343266 0.004018249
0.0651908 0.0070674475 0.0525454 0.048887596 -0.015609573 0.35199067 -0.62073886 -0.24690336
-0.22344404 -1.7276113 -0.016082443 0.006618646 0.109075144 0.17119429 0.14560054 0.08430247
-0.09863666 -0.09585012 -0.10663204 -0.04900875 0.03182044 0.19534503 0.07886704 0.16643792
0.055805206 0.13271832 -0.010926744 -0.11831778 -0.13331588 -0.02858157 -0.03259677 0.11074424
0.10384927 0.021861413 -0.001137055 0.09695021 -0.08849393 0.32702473 -0.3504711 -0.41708362
-0.41599625 -1.6036513 0.06455327 0.074508265 0.15082103 0.12422915 0.080877215 0.0021763397
-0.004048391 0.14665534 -0.1093727 0.13634247 -0.053033445 -0.14179014 -0.011846779 -0.1954153
-0.22393526 0.20288987 -0.86107486 0.10498435 -0.037662722 0.059478395 -0.33865926 0.054534435
-0.173205 -0.15079425 -0.16013388 0.043778542 -0.41522917 -0.43801206 -0.083178625 0.082059346
0.17867224 -0.10685969 -0.035839584 -0.29428846 -0.027865775 -0.06878142 -0.37588823 0.04018901
-0.11620372 0.067218825 -0.029394438 -0.42886385 0.24868044 -0.0009848679 -0.025335707 -0.25261274
-0.11202018 0.03940745 0.24043371 -0.11790103 0.19766887 0.11187993 0.31101453 0.762188
-0.3916638 -0.09432091 -0.1494771 -0.15141945 -0.35458633 -0.08356683 -0.15794478 -0.08657588
0.011871507 0.028566066 -0.41178042 0.03476499 -0.2041818 -0.027850319 -0.17692684 -0.12587543
-0.34854856 -0.10920035 0.15054731 0.5137874 -0.08365487 -0.08354231 -0.08685543 -0.28411955
00000000: 1ca3 7abd c6e0 5cbd 37d0 2fbe b6e4 06be
00000010: 1432 dabc 4dae b2bd 7cc0 90be c6e4 9fbd
00000020: 0b5d 873e 11b9 323f 242d ffbc 8f91 46be
00000030: bdda debd 3100 1e3e 43d0 563e dd06 b2be
00000040: 38ab 8e3d 50db 693c ed1e 363e 80a2 533e
00000050: 30b5 a8bc a737 6dbe d112 76be b509 c03d
00000060: fc73 053d 4568 ddbd 4a66 95bd 98b9 4a3d
00000070: 2a2f 3c3d 97ca 8b3d b583 b539 df91 94be
00000080: 9e7a 6b3d 64da c73e 04fb e43e 1a69 8abc
00000090: 2c91 12bc 1d2d 863d b681 6e3d 0f9e d33d
000000a0: a48f dd3d 173f 7d3d ec9c 473d 52ad c53d
000000b0: 5a70 afbd 6bb5 3cb9 b96b a53c 9f49 b53e
000000c0: 27d9 64be 9788 e2be 6523 d6bd ba2c 8cbf
000000d0: 0765 05be bb1e b9bc 79c5 593c 77d9 c5bd
000000e0: d46d 1a3e 5d9a a73d 18a0 57be 5d73 dcbd
000000f0: 1bc0 d1be da1b 26bf 8866 12bd 8723 c03d
00000100: a770 a63d 79ee 133d 6c01 3ebe f6c8 b5be
00000110: 8346 0b3e 060a c2bd 2d50 9a3d a641 14be
00000120: 10d4 b2bc 69b5 2d3b 0584 88bd 8bba f03c
00000130: e8a2 4a3e ac2c 3cbd cd92 f1bd e90b 33bf
00000140: f5b8 12bd c1f9 083e 34bd 42be b229 cdbf
00000150: 6288 9d3d b410 553d bb76 603e 86ea 7d3e
00000160: a97a 54be 483c e0bd 8b05 443e 409d 103e
00000170: f77b 273d 3e92 6abe 426a a2bc 63c9 063e
00000180: 38f3 253e 9c23 0e3d a9ea f1bd 7017 063c
00000190: 4750 4e3d 8b60 be3d e86f 8ebe 3598 51bf
000001a0: fdc8 a73d 50a4 3f3e eafe 513e ede1 3cbe
000001b0: 649d 20bf 09fa cd3c d29b 2fbc bcd0 633d
000001c0: 79db ccbc f7fb 023d 0015 09bd d199 82bd
000001d0: 0baa eebd dda4 463c 6442 973c 012f 1ebd
000001e0: 90b7 f43b 4111 0b3d 2d23 573c 1eed 26bc
000001f0: 2206 053d 825c 673c c91f 873d b57c b73d
00000200: cd63 703d 3ea3 b83d 2690 533c 1675 6a3d
00000210: 0152 d03c a6ca 0e3c eca6 a63c 84ab 833b
00000220: c182 853d 0c96 e73b d839 573d 5c3e 483d
00000230: 4bbf 7fbc 1f38 b43e bee8 1ebf 3cd4 7cbe
00000240: 84ce 64be 5e22 ddbf 54bf 83bc 3ae1 d83b
00000250: ca62 df3d 8e4d 2f3e 4f18 153e c6a6 ac3d
00000260: 0402 cabd 114d c4bd e661 dabd 66bd 48bd
00000270: 2656 023d 8708 483e 0b85 a13d b46e 2a3e
00000280: 0094 643d 50e7 073e 1606 33bc 9850 f2bd
00000290: f583 08be e623 eabc 3184 05bd e0cd e23d
000002a0: edae d43d b516 b33c 3c09 95ba d58d c63d
000002b0: 4e3c b5bd c96f a73e f370 b3be fc8b d5be
000002c0: 76fd d4be 7244 cdbf 8134 843d ca97 983d
000002d0: d470 1a3e da6b fe3d f4a2 a53d eca0 0e3b
000002e0: 5da8 84bb d12c 163e cbfe dfbd 5c9d 0b3e
000002f0: 9939 59bd 6f31 11be fe18 42bc f31a 48be
00000300: 494f 65be 5dc2 4f3e 676f 5cbf 0902 d73d
00000310: 3a44 1abd 9e9f 733d bf64 adbe 805f 5f3d
00000320: a75c 31be cf69 1abe 23fa 23be 2151 333d
00000330: eb98 d4be 1e43 e0be 8e59 aabd bb0e a83d
00000340: dbf5 363e 41d9 dabd 87cc 12bd faac 96be
00000350: c446 e4bc 46dd 8cbd 6c74 c0be 3b9d 243d
00000360: 37fc edbd 06aa 893d 9bcc f0bc 0b94 dbbe
00000370: 16a6 7e3e af16 81ba d48c cfbc 7556 81be
00000380: d66a e5bd b569 213d 4134 763e 1876 f1bd
00000390: b569 4a3e 4e21 e53d 4c3d 9f3e c11e 433f
000003a0: 2888 c8be 522b c1bd 8610 19be b30d 1bbe
000003b0: 578c b5be 1625 abbd 47bc 21be b24e b1bd
000003c0: b680 423c 6203 ea3c e2d4 d2be bc65 0e3d
000003d0: 0915 51be 5a26 e4bc 4f2c 35be 7de5 00be
000003e0: f574 b2be 6fa4 dfbd 1329 1a3e 9287 033f
000003f0: 3f53 abbd 3b18 abbd 42e1 b1bd 1e78 91be

fc_in_val.bias f4 [128]
0.055378612 0.15248707 -0.14105563 0.12330214 -0.015665963 -0.2713614 -0.1607409 -0.12143159
-0.14704995 -0.2039476 0.06975952 -0.18986782 0.0235285 0.07831062 -0.07251186 -0.022864273
-0.09181329 -0.10318242 -0.22082397 0.02146241 0.024575222 0.025068395 -0.07634906 0.10286755
-0.17101423 -0.17146415 -0.03643064 -0.078310005 -0.08935255 -0.13108885 -0.2289384 -0.09777054
-0.20785472 -0.15103994 0.06171525 -0.1780443 0.15099351 -0.1115874 -0.0059416033 -0.00147118
-0.11152196 0.037593644 0.011111851 -0.19625862 -0.22263703 0.0060007893 -0.076860055 -0.03191548
0.023992222 -0.24679686 -0.0148561075 -0.18601869 0.28535888 0.15283571 -0.03459628 -0.027273431
0.013752295 -0.14167461 -0.21525991 -0.31994623 -0.16274208 0.16532227 0.05780518 0.16304997
0.031341396 0.002223714 0.013415702 -0.035948016 0.044927627 0.25078592 -0.24427089 -0.016689703
-0.056246992 -0.27766207 -0.26194337 0.024639452 0.0986997 0.0036538658 -0.035934366 0.043898284
-0.08526258 -0.10603119 -0.14806764 0.041347485 -0.20726748 0.06535683 0.06179028 0.051873505
-0.1983077 -0.18559244 0.04073275 -0.1761194 0.09928263 -0.10084643 -0.053986218 -0.027454674
-0.20216063 -0.059221774 0.16916521 -0.13229397 0.052626662 0.13950425 -0.13059962 0.082229316
0.048076313 -0.15934518 -0.08947101 -0.13120434 -0.23644163 -0.25054055 -0.19612703 -0.16834232
0.09018134 -0.030898005 0.014292747 0.03594979 -0.102214724 0.10449057 -0.14953172 0.05073167
0.016824791 -0.06408197 -0.0710926 0.077932954 0.03261742 0.07738218 0.08718298 0.04533325
00000000: afd4 623d 9225 1c3e e370 10be d585 fc3d
00000010: e855 80bc e2ef 8abe 4399 24be 20b1 f8bd
00000020: 4394 16be a4d7 50be 14de 8e3d b66c 42be
00000030: d7be c03c 5161 a03d 1981 94bd db4d bbbc
00000040: 9b08 bcbd 4e51 d3bd ae1f 62be f0d1 af3c
00000050: fa51 c93c 3c5c cd3c e55c 9cbd 39ac d23d
00000060: 5b1e 2fbe 4c94 2fbe 4b38 15bd ff60 a0bd
00000070: 78fe b6bd 283c 06be d46e 6abe ec3b c8bd
00000080: ded7 54be 37aa 1abe 21c9 7c3d 3f51 36be
00000090: 0b9e 1a3e ef87 e4bd c8b1 c2bb 9cd4 c0ba
000000a0: a065 e4bd cbfb 193d 7b0e 363c 05f8 48be
000000b0: f6fa 63be 45a2 c43b ce68 9dbd ceb9 02bd
000000c0: 568b c43c 51b8 7cbe 0867 73bc af7b 3ebe
000000d0: 8f1a 923e f780 1c3e d4b4 0dbd 886c dfbc
000000e0: 4e51 613c 2613 11be 186d 5cbe fecf a3be
000000f0: dca5 26be 3e4a 293e 20c5 6c3d 92f6 263e
00000100: d65f 003d bbbb 113b 88cd 5b3c 3a3e 13bd
00000110: 0806 383d 0367 803e 2622 7abe d8b8 88bc
00000120: 3f63 66bd b929 8ebe 711d 86be add8 c93c
00000130: 1123 ca3d b275 6f3b ea2f 13bd b0ce 333d
00000140: 269e aebd e126 d9bd 0b9f 17be fb5b 293d
00000150: ed3d 54be cdd9 853d ce17 7d3d 5079 543d
00000160: 2c11 4bbe f20b 3ebe 62d7 263d a558 34be
00000170: b154 cb3d 9388 cebd a720 5dbd a0e8 e0bc
00000180: 3203 4fbe 8892 72bd a539 2d3e 1278 07be
00000190: 0e8f 573d 34da 0e3e e8bb 05be d867 a83d
000001a0: abeb 443d 622b 23be 943c b7bd 6e5a 06be
000001b0: c11d 72be da46 80be 86d5 48be ee61 2cbe
000001c0: ffb0 b83d d01d fdbc 202c 6a3c 1640 133d
000001d0: f455 d1bd 27ff d53d d81e 19be 03cc 4f3d
000001e0: 25d4 893c 683d 83bd ff98 91bd 509b 9f3d
000001f0: d899 053d 8c7a 9e3d fd8c b23d 5caf 393d
