checkpoint_woper.pth (torch_old, 286636 bytes, 8 tensors)

fc_in.weight f4 [128, 37]
00000000: 6e61 06bd d87d 4d3d 51ac 4d3d 7010 0b3d
00000010: 5840 f73b d7c8 553d dea5 1c3d 953d 353e
00000020: 3b00 103e 8d27 013e f1c3 863e 73ce 56be
00000030: 9355 f8be be6c 04bf e07d 06c0 b817 203d
00000040: e92e 243d 3709 893d e35e 2d3e df1d a1bd
00000050: 55d4 143d 66e5 253e 228b c13d c491 103e
00000060: 03ce fb3c 0c42 6abc fbb0 233e 1290 e8bd
00000070: b5ab 933d f1c1 cf3d 781a b0bd e6d0 833d
00000080: 031c 773c 07a8 a83d ea1a 3a3e fee4 99bc
00000090: 7758 0a3c a2a3 8f3e f4b0 e1be d769 163e
000000a0: fb29 0ebf f4d9 94be 02d3 d2bd 6db8 e9be
000000b0: 4232 363d 5a0d b0be 895a d6bd 5721 57bd
000000c0: fcd6 413e 5837 f6be dfbf 24bd dd97 f03c
000000d0: 45d3 463d b392 8bbd 94bd 4d3e 87ee e3be
000000e0: 69a5 5f3e fef5 f5be ffbd 083d 60f5 c5bd
000000f0: 85c4 90be febc 673b 7420 81be daa0 46be
00000100: 6a6a 8e3e 3a32 cebe 45a1 1fbf 013d 75bd
00000110: f086 e63c 6446 913c 2324 073d 02b8 a4be
00000120: 7dec 5e3b 9514 983c e707 2e3d 6bc3 793e
00000130: 2e21 1f3d 6694 7dbd fe95 993e 65f8 6cbf
00000140: 0c79 80be 80cb ba3e f417 843e ef89 19bf
00000150: fda8 9eba bad5 263b 50bd 9d3d 10c1 52be
00000160: 169b 2c3e c524 d1be 9be9 383e dd8a 153e
00000170: 658b 3b3e 035b 84bd 5e99 75be 16ad 083d
00000180: 481c aa3c cc3a 033e fec0 8abe e106 c0be
00000190: 4e98 933e 8f31 653e 9f79 413d 72f4 aebe
000001a0: e97d 63be 24ae b63d 795b 4abd c505 9ebe
000001b0: 28cc 62be 6842 a13d 4ff0 edbc e208 283e
000001c0: 1894 32bc 3ac9 b43e 3493 24be 8998 d4be
000001d0: 12e6 10bc e80a 523d 775c 943d 9d52 193e
000001e0: 2bd6 a43e 6852 26bd 7bbc 0d3d 0774 c53d
000001f0: 2cf0 0fbd 6f43 4fbe d5aa 48be 8174 443d
00000200: fccd 76bb 2e9f 223d 1eb2 01be fac6 ad3d
00000210: f8c3 a9be 2bb7 4f3e 5d64 243e 47e5 2c3d
00000220: 0fbc ccbd fb03 e93c 2d7a a23d 2abf 983e
00000230: deac 363e e969 a03e 2ce5 8a3d d25e 22be
00000240: e63a d0bc 6c0d 78bf ff75 1b3d 8dcf a83b
00000250: 8572 48bc d4a7 26bd 138f ffbd 5d59 f6bd
00000260: 3f37 10be 2d78 c23e b823 10bf 3f73 6fbe
00000270: ccd1 eebe 1d14 0bc0 90e3 c43d 91f9 16bc
00000280: 0ba9 50bc 4608 fa3c f51f 29be fd5f 3d3c
00000290: dc29 82bd d990 613c 3a7e 423d 681a 203d
000002a0: f262 97bc 96da 333d e2f7 423e 6252 1b3b
000002b0: 7103 2f3e ef2c 763d 49cc a53d a99a f43d
000002c0: dccf 193e 3e66 1e3e a207 0f3e beb3 d2bc
000002d0: f793 d53d 397d 0a3e d951 953e 4b12 a83c
000002e0: aaa3 3b3c aa1c 13bd fce4 82be 3c5c 423e
000002f0: 41d3 bebe 1a02 f2bc 14f8 94bc 3d52 463e
00000300: f70b 3cbe 3ede 91bd 8e79 74bf 30db 13bf
00000310: 79a5 55be 0819 6d3e 29af 83bc e103 9ebe
00000320: 51a8 75bd 7fda 753e a356 4bbe 87f4 c1be
00000330: e222 a7be a15e e93d f0ac 2ebe bf9e 4a3e
00000340: 1cd6 c9bd f91e edbd 2402 c1be 57a0 3d3e
00000350: 644e 1c3e 92b2 d6bd 30fb 32be d50e 05be
00000360: 5098 d5bd 83b9 d9bc ebd2 c43d 1650 99be
00000370: 1f10 433d e1eb b23d 941e 913d d883 d7bd
00000380: 6a60 7ebe 4283 023e 2203 32be 144c 1dbe
00000390: ab8d 60be 9203 82bc 948d 903e fb7b 6b3e
000003a0: 66b7 c33d 992e 973d a5d3 2c3e b6dd fabe
000003b0: f5ab 533d 8344 7f3e 0afb 25bf 9664 24be
000003c0: 27bd 6bbd df7e 3c3e 8186 4fbe 7093 14be
000003d0: f7ac 533e 96b2 65be ffb7 3d3e 63fb 91be
000003e0: 74d4 b1be cbc8 d63d f209 933d fc5a 02be
000003f0: 28fb 5b3e b9ed 34be 9eb9 0ebe 481c bfbd
-0.03280776 0.050168842 0.05021316 0.033951223 0.007545512 0.05219349 0.03824412 0.17699273
0.14062588 0.12612744 0.26321366 -0.20977192 -0.48502788 -0.5172843 -2.1014328 0.03908512
0.0400838 0.06691211 0.16930728 -0.078670256 0.036335308 0.1620079 0.094503656 0.14118105
0.030737882 -0.014297973 0.15985481 -0.11355604 0.07210485 0.10144413 -0.085987985 0.064363286
0.015082362 0.08235174 0.1817433 -0.01878595 0.008443943 0.2805453 -0.44080317 0.14688812
-0.5553281 -0.29072535 -0.10294153 -0.45648518 0.044481523 -0.34385186 -0.10466487 -0.05252203
0.18929666 -0.480891 -0.040222045 0.029369289 0.048541326 -0.0681509 0.2009185 -0.4451792
0.21840443 -0.4803924 0.03338432 -0.09665942 -0.28274933 0.003536045 -0.25220072 -0.19397298
0.27815562 -0.40272695 -0.6235545 -0.05987263 0.028140515 0.01773376 0.032993447 -0.32171637
0.003401547 0.018564502 0.042488005 0.24390952 0.038850002 -0.061909102 0.29997247 -0.9256652
-0.2509235 0.36483383 0.25799525 -0.59976095 -0.0012104806 0.002545698 0.07702124 -0.2058146
0.16856036 -0.40848365 0.18057863 0.14603753 0.18314894 -0.064626716 -0.23984286 0.033368193
0.020765439 0.12815398 -0.27100366 -0.37505248 0.28827137 0.22382186 0.047235128 -0.34170872
-0.22216 0.089199334 -0.04940364 -0.30863777 -0.22148192 0.07873994 -0.029045252 0.16409639
-0.010899566 0.35309774 -0.16071779 -0.41522625 -0.008843916 0.051279932 0.07244199 0.1497292
0.32194647 -0.040605932 0.034603577 0.09641271 -0.035141155 -0.20240568 -0.19596417 0.04796267
-0.0037659397 0.039702587 -0.12665603 0.084852174 -0.33157325 0.20284717 0.1605391 0.042210843
-0.09996807 0.02844428 0.079334594 0.29833347 0.17839381 0.31330803 0.06781992 -0.15856484
-0.02541871 -0.9689548 0.037954327 0.005151695 -0.012234335 -0.040687397 -0.12478461 -0.120287634
-0.14083575 0.37982312 -0.563045 -0.23383807 -0.46644437 -2.1731026 0.096137166 -0.009214775
-0.0127356155 0.030521523 -0.16516097 0.01155853 -0.0635564 0.0137674445 0.04748366 0.039087683
-0.018479798 0.04390963 0.19039872 0.0023700227 0.17091157 0.060101446 0.08095605 0.119435616
0.15020698 0.1546869 0.13967755 -0.025720473 0.10428613 0.13524331 0.29164007 0.020516535
0.011452595 -0.035916008 -0.25565326 0.18980497 -0.3727055 -0.029542018 -0.0181847 0.19367309
-0.18363939 -0.071224675 -0.9549798 -0.5775633 -0.20863904 0.2315408 -0.016074734 -0.30862334
-0.059974972 0.24009131 -0.19857268 -0.37881872 -0.326438 0.11395002 -0.17058158 0.1978712
-0.09855291 -0.11578173 -0.37696946 0.18518196 0.15264279 -0.10483278 -0.17478633 -0.12993939
-0.10429442 -0.026577717 0.09610542 -0.29943913 0.047622796 0.087363966 0.070859104 -0.10523194
-0.24841467 0.12745383 -0.17384008 -0.15361053 -0.21929042 -0.015870843 0.28233016 0.22996514
0.09556465 0.07381935 0.16877611 -0.48997277 0.051677663 0.24928479 -0.6483618 -0.16053995
-0.057553437 0.18407772 -0.20266153 -0.14509368 0.2067145 -0.22431406 0.1852722 -0.28512105
-0.347324 0.10487517 0.07179631 -0.1273002 0.21482527 -0.17668809 -0.13937995 -0.09331566

fc_in.bias f4 [128]
00000000: 7f4a 8f3c 4228 6ebd 8cf2 51bd 338e c5bc
00000010: aa8a bd3d 39b4 0fbe 5a87 c7bc 19ce a5bc
00000020: 77ae 54be a34b 7b3d 9a23 02be 1f12 3ebd
00000030: 2b66 9dbd 96d9 2fbd ccae eebd f11c 88bc
00000040: 5e48 463d bfef b2bd c07c 21be 95a8 b3bd
00000050: 352b ecbd acd2 af3d 181d 8a3d bc56 223d
00000060: 7e9f b73d 51a4 d03d ce56 1b3e 4cc7 bebd
00000070: a4d3 e7bc 2dc7 2fbe 90f9 a93d 1158 c13d
00000080: 87db 11be 8ce5 813d 7760 40bd 843c 4bbe
00000090: 069a aabc 87a8 db3d aa73 c93c c16e 08bc
000000a0: 6c73 a13d 941f d43d 6103 a23d 2444 69bd
000000b0: a734 f23c 594e 87bd 6dc7 d3bc 5b64 9ebd
000000c0: 5381 03be 5fd3 013d 23cc 95bd c336 2c3e
000000d0: cd78 b6bd 1f57 083d 084b a2bc bb4a 803d
000000e0: f248 0bbe 7ef8 dbbd 0c6d 083e 6556 d9bd
000000f0: d250 6bbe 287c 6d3c cbd7 143d 64ad a9bd
00000100: 826e 003e 7cd8 35bb 24c1 8e3d 298e 05be
00000110: e61e 47be 76c1 fbbd d702 32be 55cc 2fbe
00000120: 2231 e83c 2273 03be 5284 25be b3e3 b13c
00000130: 4d56 4c3e 32d3 18be 8e1e c23c 6cc3 61bb
00000140: de8e fabc 58a8 1fbd 7bf9 93bc 4d6a c9bd
00000150: 25b8 25bd 7eae 353e 05e1 4b3d 5a48 16be
00000160: de33 eb3d 9e19 073d 7f00 fb3d 6320 d7bd
00000170: a535 e9bd 7477 e4bd 00f6 4dbd d050 d43d
00000180: 58f9 acbd b228 22be 9cb4 a0bd 05f4 e53d
00000190: eb5e 18be 04bd 61be edb3 b83d 5889 203e
000001a0: 8882 2cbe 4711 1cbe 417e adbc c4cc e83d
000001b0: bca7 34be 6f15 6a3d 0f01 133d fa98 0bbd
000001c0: d539 c8bd 6ef3 84bd b300 9c3b d97f 163e
000001d0: 90c1 d33c 38bd 343e 045a fd3d 5ecc 49bd
000001e0: d137 47bd 6bd1 cb3d cf06 47bd 166b 84bd
000001f0: 4d39 e5bd 74f7 923d e9a9 a03d 757e c03a
0.017491577 -0.05814386 -0.0512567 -0.024115657 0.09254964 -0.14033593 -0.024356533 -0.020239877
-0.20769678 0.06135143 -0.12708893 -0.046404 -0.076855026 -0.042932115 -0.116544336 -0.016615363
0.04840886 -0.08737134 -0.15770245 -0.08772389 -0.115316786 0.08585104 0.067438304 0.039633498
0.089659676 0.10187591 0.15169832 -0.093153566 -0.02829916 -0.17165823 0.082995534 0.094406255
-0.142439 0.06342611 -0.046966996 -0.19847304 -0.020825397 0.107255034 0.024591286 -0.008327187
0.07883343 0.103575855 0.07910801 -0.05694975 0.029566122 -0.066067405 -0.02585193 -0.07733985
-0.12842302 0.03169572 -0.073143266 0.16817765 -0.0890976 0.03328621 -0.019811168 0.06264254
-0.13602045 -0.107407555 0.13322848 -0.106121816 -0.22980049 0.014494933 0.03633861 -0.08285025
0.12542155 -0.0027747443 0.069704324 -0.13042511 -0.1944538 -0.12292759 -0.17383896 -0.1716779
0.02834374 -0.12836888 -0.16163757 0.02171502 0.19954796 -0.14924315 0.02369621 -0.0034448756
-0.030585703 -0.038978904 -0.018063297 -0.098347284 -0.040458817 0.17742345 0.049775142 -0.14676037
0.11484502 0.032983415 0.12255954 -0.10504224 -0.11387185 -0.111555964 -0.050283432 0.10366976
-0.08445996 -0.15835837 -0.078469485 0.11228184 -0.14879958 -0.2204476 0.09018693 0.15677392
-0.16846669 -0.15240966 -0.021178367 0.11367181 -0.1764211 0.057149347 0.03588968 -0.034081437
-0.097766556 -0.06491743 0.0047608255 0.14697208 0.025849134 0.17650306 0.12370685 -0.049267165
-0.048637215 0.09952053 -0.048590478 -0.064657375 -0.1119257 0.07176104 0.07844908 0.0014686125

hidden_list.0.weight f4 [256, 128]
00000000: 2b62 c2bd 982e 843e 59fa 013d 5ee1 083e
00000010: b6c8 97be d5f0 2a3e 0b0f 233e 0916 663e
00000020: fa80 033e 7db6 063e 2196 c83b 90ac 1fbe
00000030: 4eb1 4dbd 43ce dcba 18ca adbd c4b5 e5bd
00000040: 64b1 3dbc 72d4 563e 1057 04be 44c7 9f3e
00000050: b487 113e 197a 26be 8110 17bd ad7f 8a3e
00000060: 97a4 06bf a363 8f3e 43db 14bf acdb 9d3d
00000070: 6a0f 7abd 3ed4 2cbe d88b df3c 2706 c6be
00000080: c3d2 3fbd e3c2 f6bd 6dc0 30bd d4d4 063e
00000090: 4235 1e3e c987 d93d 2554 063e d430 3b3d
000000a0: a5e0 a0bc baa4 7bbe cf89 563e 8e73 c23c
000000b0: 8f7d 46be 03bc 3fbd fd93 d5bd f723 32be
000000c0: 93b4 b0bd 807e e9bd f0f1 d23d 8264 02bf
000000d0: 790e c53c 9ec3 a2bd e424 1ebc fb3b 8cbd
000000e0: b685 c13e 2b94 d8be 82bb 843d 81a8 4f3e
000000f0: 05b2 9bbd 584a b53c 4ff8 263e 8a18 cd3c
00000100: eecd 2f3e 4d45 d2bc 37ea e6bc 0eb4 f3bd
00000110: 565e d0bd 4ef0 3d3e bcc9 14bd 947a c9bd
00000120: 8afe 86be 24a4 683e 13e7 48be 0559 9d3e
00000130: 5618 4bbd 72d7 65be 580a 5f3e 7f00 f8bd
00000140: b280 da3d 24a4 b23d b7f4 94bd f6da b3be
00000150: 97e0 54bd 1d4b 8bbe b2da b6be 68ca d33d
00000160: a984 983e d6ac 863e 9a0b 603c 0be2 0bbe
00000170: 316e f8bd c234 253d 48b8 2f3d 3266 95be
00000180: b04f 94be a481 873d 55ae fabc a7c0 88bd
00000190: 30f6 f43d 5262 9fbd 1384 90bd b4cb 2e3d
000001a0: c492 1d3e 4bb0 1fbd df7f 7ebc 0bd0 99be
000001b0: 7067 8d3e 1c21 bdbe 0ea3 b5bd 2358 0ebe
000001c0: 33fe 93bd bf45 563e 46aa 813e 056b 503e
000001d0: 5be0 283e 4faa 1a3d 8aea d4bb 5c79 8dbc
000001e0: 0271 6b3d 91f3 2abd 6a23 4dbe 48b9 593d
000001f0: 0512 6f3e c259 56be b75d 64be c842 6abe
00000200: a33c babb e183 4fbe 1f81 0a3e 3dab a0bd
00000210: 5cfd 00be 51b9 74bd a9e9 f83c 34fb 193d
00000220: 93a2 71bd 1e46 1dbe 7f13 66be 26a0 47bd
00000230: afbe 8ebd 7803 37bd e103 6c3c 28b5 41bc
00000240: 2892 c6be 2748 0f3c 0fa0 e0bc 2c97 b3be
00000250: 649f 383d 2963 333d b68d 85bc b026 b83c
00000260: 39b0 1d3d 4eb8 28bd 0377 3b3f ddea 633e
00000270: 3101 22bc 06f0 acbd d5d1 df3b 7a52 683e
00000280: a034 213e 478d 3dbe 287b cdbc fa8d 8d3e
00000290: eab4 503d 65ea ed3c e3f5 67be 7c37 6bbd
000002a0: ec51 b3be 430f 1abd e1ba 913d 5c44 e1bc
000002b0: fdf9 b63c f3cb c9bd f324 49bd 0012 123c
000002c0: f71f 37be 68b0 d5bd f9bd 463d 2cbb 253d
000002d0: d8a2 41be c0f2 9bbc a3c6 853d 9af1 1bbb
000002e0: c379 8e3d f77e e0bd b240 c9be 546d 1fbe
000002f0: 9528 67be 5a79 6dbd caa7 aa3d ac90 0f3e
00000300: e3d5 23be 9ba2 663d da35 293e ae68 5e3e
00000310: cc00 ee3d c07c 333e 14d4 f33d 3ee7 3dbd
00000320: f8f6 6e3c 6962 6e3d 4a04 0abd 5acb bfbe
00000330: 89eb e5bc 8915 693e 857d ed3c c93b a8bd
00000340: 50e1 b6be a0a5 553e bfac b0be abff cb3d
00000350: cdee fcbc 1837 34be b678 d83d 4a12 18bc
00000360: ae9c 61bf b13b 1b3e 7c0e 823d f163 31be
00000370: 807d f8bd 0a2b 89be 27b9 b0be c53e 68bd
00000380: 6e9c 1f3e 8725 59bd d703 d53d 7090 7f3d
00000390: 211b 523e e172 83bb 6ce7 ab3d 2455 bcbc
000003a0: 15b2 223e fe0d 8f3d 7414 703d 3d84 973d
000003b0: 9a27 873e 42f4 5bbe 51a4 953d 681f 7ebd
000003c0: 6962 e73d 7fae 8e3e 90b9 ccb8 3618 1f3e
000003d0: 1447 35be fe48 af3d b70e 663e 3010 85bd
000003e0: 6d75 15be 5285 e8bd ba06 35be eb02 9e3d
000003f0: cbef 823c a03c 183b 459c c83d 1847 38bd
-0.0949138 0.25816798 0.03173289 0.13367221 -0.29645318 0.16693433 0.15923707 0.22469343
0.1284217 0.13155551 0.0061214124 -0.15593171 -0.05021792 -0.0016846139 -0.08485812 -0.1121631
-0.011577938 0.20979479 -0.12923837 0.31206715 0.14211923 -0.16257514 -0.036880974 0.27050534
-0.52594894 0.28005704 -0.58147067 0.07707915 -0.061049856 -0.16877839 0.027288362 -0.3867657
-0.046831857 -0.120488904 -0.04315226 0.13167125 0.15450004 0.10621602 0.13118036 0.045700863
-0.019638369 -0.24574557 0.20951007 0.023736741 -0.19383834 -0.04681016 -0.10428617 -0.17396532
-0.08628192 -0.11401081 0.10300052 -0.5093461 0.024054753 -0.07947467 -0.00965235 -0.06847378
0.37797326 -0.42300543 0.06481077 0.20279123 -0.07602314 0.022130176 0.1630566 0.025036115
0.171684 -0.02566781 -0.028187854 -0.11899577 -0.10174243 0.185487 -0.0363252 -0.09837833
-0.26366073 0.22718865 -0.19619398 0.3073198 -0.049583755 -0.22445467 0.2178129 -0.121094696
0.10669078 0.087227136 -0.07273238 -0.3512799 -0.051971998 -0.27205744 -0.35713726 0.1034134
0.29788712 0.26303738 0.013674641 -0.13660447 -0.12130392 0.040333517 0.042900354 -0.2917953
-0.28967047 0.06616524 -0.030600706 -0.066773705 0.11961019 -0.07782425 -0.07056441 0.042674735
0.15388018 -0.038986485 -0.0155334165 -0.30041537 0.2761798 -0.36939323 -0.08868991 -0.13900809
-0.07226219 0.20925044 0.2532522 0.20353325 0.16491835 0.037760075 -0.006497686 -0.017269783
0.05748082 -0.04173619 -0.2003304 0.053155214 0.23346718 -0.20932677 -0.22301374 -0.22877038
-0.005683498 -0.20265152 0.13525818 -0.07845161 -0.12596649 -0.059747044 0.030384855 0.03759308
-0.058992933 -0.15358779 -0.22468375 -0.048736714 -0.06969964 -0.044681042 0.014405222 -0.011822976
-0.38783383 0.00874523 -0.027420072 -0.35076272 0.04507388 0.04379574 -0.016302925 0.022479385
0.038498137 -0.04119139 0.7322847 0.22257562 -0.009887979 -0.08444218 0.006830434 0.22687712
0.15742731 -0.18510924 -0.02508314 0.27647382 0.050953783 0.029042432 -0.22652392 -0.05742596
-0.3502344 -0.03761221 0.071157224 -0.027498417 0.022336 -0.09853353 -0.049107503 0.008915424
-0.17883287 -0.104340374 0.048521016 0.040461704 -0.18909776 -0.01903665 0.065320276 -0.0023795129
0.06956818 -0.109617166 -0.3930717 -0.15569049 -0.22574075 -0.057977058 0.083327845 0.14020032
-0.1599956 0.056307416 0.16524449 0.2171962 0.11621246 0.17528057 0.11905685 -0.046363108
0.014585249 0.05819932 -0.033695497 -0.37459832 -0.028066413 0.22762121 0.028990516 -0.08214528
-0.35718775 0.20863962 -0.34506795 0.09960874 -0.030875588 -0.17599142 0.10569899 -0.009281704
-0.881297 0.15159489 0.06350419 -0.17323281 -0.12133312 -0.2679065 -0.3451626 -0.056700487
0.15587017 -0.053014304 0.10401123 0.062393606 0.20518161 -0.0040114974 0.083937496 -0.022989817
0.15888245 0.06985091 0.058613256 0.07398269 0.263974 -0.21479896 0.073067315 -0.06204167
0.11298067 0.27867505 -9.762042e-05 0.1553658 -0.17702895 0.08558844 0.22466551 -0.06497228
-0.14595576 -0.11353554 -0.17678347 0.077154 0.015983483 0.0023229495 0.09795431 -0.044989675

hidden_list.0.bias f4 [256]
00000000: a9c8 aa3d 2300 223e 34bd 703d dad6 933d
00000010: 0d00 873c 1d62 203d c9a2 603d f9e3 e03d
00000020: 627e 9bbd 7ddf 583e f1df 773e 2bf7 9c3e
00000030: fad8 823c 5a67 3cbd 8d8f 10be 38ee cd3d
00000040: c0ad ea3d e051 d1bd 8b07 cebb 1912 5b3c
00000050: da96 413d 4fbf a4bc 2b76 7d3c aadb dc3c
00000060: f67b 913d efb9 ea3d 35db c73d a4b2 dc3c
00000070: 850d 873e 3ed0 d5bd 5ed9 b03e b311 8c3d
00000080: 583b a03c da73 fe3d 3c57 1d3e 0afa 063e
00000090: 43a8 b1bd 3413 07be 616e 3bbe bafe 13be
000000a0: 7a2c 80bc 38a9 33be b3c9 713e bde5 283e
000000b0: 6975 0a3e f5fd 8bbd 2614 a6bd 235e 353d
000000c0: d9ad 3fbe e27f aa3d 9661 c8bc 65ac bdba
000000d0: 0102 793d de49 193e e438 013e caaf 1a3b
000000e0: 4b5e 30be 7434 6a3e b31b 24bd b82c 5c3e
000000f0: 5b55 93bc 1d01 c03d 6720 96bb f5cb 153e
00000100: cbb3 273d ac5a f4bd 78dd aa3e 3884 bb3a
00000110: 66b2 16bd d1b9 863d 6081 ce3d 9646 d13c
00000120: 9f1a 153d 7b7c 15be fdab 36be cffe 983d
00000130: 838c 943d b9d4 25be c2db 733d 79f7 be3b
00000140: 8504 acbc e789 91bd 7783 d0bd 676a d53d
00000150: 1b26 abbd 4cf5 2e3d 6998 aebd b1db e43d
00000160: d2d2 fd3d f49a db3e 2ef7 b7bc 5041 b33d
00000170: 8e20 953c 8629 0e3c 3e4a 9d3d 858f 263e
00000180: 5efd 89bd 0b2c 83bd 24a0 cd3d 6b4d 93bd
00000190: 26a6 4bbe b345 e03d d7fb d23d d272 2e3d
000001a0: c270 073d 8b1b afbd c293 ce3d 3392 22bc
000001b0: 1909 9fbe 5708 763e 75d8 783d 0768 37bd
000001c0: 8122 fd3b 9fd5 30bd 1b99 05be 5b57 45bc
000001d0: 8e8f a33e 754f e83d e754 3ebe 8114 203e
000001e0: 0921 c6bd 389e d83d 2b75 07be b551 993e
000001f0: f5d0 3abd beed cbbc 44ed 593e febb 4f3c
00000200: 56be 9c3c 121a 1abc 6946 153e f4be bbbd
00000210: 7868 4e3e fb93 f93d 8911 f73e 5909 f5bb
00000220: 787a 52be e353 48be ec35 9a3c cbd2 1e3e
00000230: 02cb 1d3e 2cf1 c4bd afbc 5f3d 67e2 02be
00000240: 7229 8dbd 3b9b 323d ea4f fbbd d871 b5bd
00000250: 3d91 acbd c749 1d3e 3e43 653d 2164 593d
00000260: ba5f 373d bb5c 21bd 4028 38bd 78ce 29be
00000270: fdc9 e33c 1000 e13d 6da7 073d 32eb 623e
00000280: 7e5c 24bd 0393 f8bd 6583 c4bd bcf8 b23e
00000290: a29b 1b3e 4023 9e3d 2aea 85bd ad40 943d
000002a0: 89ed 793d 041c 183e 2f8e 833c 4201 353d
000002b0: 9b2d b63d bea2 b93d 5a03 e33d 5db7 203c
000002c0: d7b2 25bd 5978 063c 4bc0 dfbd 1d6b 463c
000002d0: 57e3 91bd 7ade bb3d 6b7a 083e 173b af3d
000002e0: 7161 cbbd b829 e93b 9bde 6abe 6d27 973d
000002f0: 472c b0bd 2992 d63d d84f f13d 856c 01be
00000300: f54f 9a3d 6cc4 1bbd ec5a aebd e22a d23e
00000310: 1d7f ddbc 769b 3b3d 8a6d c0ba a9ce 573e
00000320: 74af 37bc 589e 8b3d 036a 893d 7f5f cfbd
00000330: de9a 98bc a2bc aabd b751 653c 9010 e13d
00000340: 144b 5abd bd7d 3abe 472e 96bd 8a47 f1bd
00000350: c4f0 89bd a354 a53d ff2b 02bc 8119 923d
00000360: 9631 46bd 953d 8b3d e8f9 8f3c d931 9ebd
00000370: 8156 99bd c352 f4bd d491 b33d 1b6f b13e
00000380: c3c1 c73d ddf6 983e e952 e13c f12a d13d
00000390: ed0d 05be 755e 173e 875d 0abe ced0 efbb
000003a0: a7f8 f3bc 2996 f93d 9b34 ddbc f253 a23c
000003b0: ed6d bdbd b8ae 9ebd 2936 5f3d 090a 4abd
000003c0: 2fda c53d 1d52 21bc c4ae e93c c1e6 a2bd
000003d0: 1265 a63c 4899 b33d 54a8 c9bd 268c 07be
000003e0: 54d3 693d 8a60 f0bd e494 87bd aeea 40bd
000003f0: db1d bfbd 034e 0f3e 0467 eabd b1bf be3d
0.08339054 0.15820365 0.05877419 0.07218714 0.016479516 0.039156068 0.054842744 0.10980982
-0.07592465 0.21179004 0.2420652 0.30657324 0.015972603 -0.045997 -0.1411726 0.10055202
0.114589214 -0.102206945 -0.0062875203 0.013371014 0.047263004 -0.020110754 0.015470068 0.026960213
0.07103722 0.11461245 0.09758607 0.026940651 0.26377502 -0.1044011 0.34540838 0.06839313
0.019559547 0.12424441 0.15365309 0.1318132 -0.086746715 -0.13190919 -0.18303825 -0.14452639
-0.015646208 -0.1754502 0.23612098 0.16493888 0.13521351 -0.06835548 -0.08109312 0.04427923
-0.18718661 0.08325173 -0.024460595 -0.0014470933 0.060792927 0.14969584 0.12619358 0.0023603314
-0.1722347 0.22871572 -0.04006548 0.21501434 -0.017985037 0.09375212 -0.0045814994 0.14628585
0.04094295 -0.11931357 0.33372092 0.0014306372 -0.036791228 0.065784104 0.1008327 0.025546353
0.03640234 -0.14598267 -0.17839046 0.07470476 0.07253363 -0.16194429 0.05953575 0.005827841
-0.020998249 -0.07106381 -0.10181325 0.10420685 -0.083568774 0.042714402 -0.08525164 0.11174715
0.123937264 0.42891657 -0.022456732 0.08752692 0.018204 0.008676892 0.07680176 0.16265686
-0.06737779 -0.06404885 0.1004031 -0.07192501 -0.198876 0.10950794 0.10301941 0.04258997
0.03306652 -0.08550175 0.10086776 -0.009922552 -0.31061628 0.24026619 0.060753305 -0.044776943
0.0077250605 -0.043172475 -0.13046686 -0.012044753 0.3194546 0.1134328 -0.18587075 0.15632822
-0.0967427 0.10577053 -0.1322829 0.2994515 -0.045609433 -0.024893638 0.21281916 0.012679098
0.019133728 -0.00940563 0.1457764 -0.09167281 0.20157039 0.12186428 0.48255566 -0.007477921
-0.2055453 -0.1956325 0.01882454 0.15510099 0.15409473 -0.096163124 0.054623302 -0.12781678
-0.06892671 0.04360507 -0.12271102 -0.088596046 -0.084261395 0.15360175 0.05597233 0.053074006
0.044769026 -0.039395075 -0.04496026 -0.16582668 0.027806276 0.1098634 0.033118654 0.22160032
-0.04012727 -0.12137415 -0.09595374 0.34955394 0.15196088 0.07721567 -0.06538804 0.072388984
0.061017547 0.14854437 0.01605901 0.044190653 0.08895417 0.09064244 0.11084624 0.009809342
-0.040453758 0.008207404 -0.10925349 0.012110499 -0.0712344 0.091732934 0.13327949 0.08556192
-0.09930695 0.007115569 -0.2293648 0.07380567 -0.08602195 0.104770966 0.11782807 -0.12639053
0.07534782 -0.03802912 -0.08513436 0.41048342 -0.027038151 0.045802556 -0.0014681083 0.21074928
-0.011211265 0.06817311 0.06709673 -0.10125636 -0.018628534 -0.0833676 0.013996533 0.10989487
-0.053294256 -0.18212028 -0.073330455 -0.11781223 -0.067353755 0.08072784 -0.00794506 0.07133771
-0.048387133 0.06798855 0.01757522 -0.077243514 -0.074872024 -0.11929848 0.08768049 0.3465508
0.09753754 0.29875842 0.027505355 0.102132685 -0.12993594 0.14782126 -0.1351224 -0.0073185926
-0.029781653 0.12186844 -0.027002623 0.019815419 -0.09249482 -0.07748169 0.05449501 -0.049325977
0.09660756 -0.0098462375 0.028525718 -0.07954169 0.020311866 0.087694705 -0.09846559 -0.13237056
0.057086304 -0.11737163 -0.066201955 -0.047098808 -0.09331866 0.13994603 -0.1144543 0.09313906

hidden_list.1.weight f4 [128, 256]
00000000: ae87 54be 26c4 3dbd c8da c93e 0a39 02be
00000010: 2edd 01be a1c7 5abe 6940 54be 9c16 d03e
00000020: 644f 30bd b864 8dbe 52f0 8e3d db59 813d
00000030: c499 253d 2754 5d3d a6e3 8ebe 10b4 a33d
00000040: 708a 41be 8094 403e c578 90bd cd55 00bd
00000050: e819 ab3d 062d 6f3d d76d 9cbe 7020 69be
00000060: 57ee 03be a900 12bd 93a2 cd3e ef2f 83be
00000070: befa 59bd aac4 19bd d7e3 a5bd 5033 0fbe
00000080: 8711 b9bd f4d7 13bd be98 6d3d 2545 923c
00000090: 07b8 88bd 3d77 863d 4a48 7e3c 3e80 2dbd
000000a0: a736 dd3d 23f0 58bd 6ad9 7e3b dc2c d03d
000000b0: 2419 173e f001 9a3d 56c6 1f3b f0bf 323e
000000c0: bdbb d43d fbbb a93c be02 053e b4e4 adbd
000000d0: a65e 6a3d 92be 29be d58d a0be b45c 823b
000000e0: dbf3 0f3e 9ec1 3bbc f4e7 a93e 5822 873e
000000f0: 16bb 693e 5e13 a93d 5ee7 86be 7a46 4bbe
00000100: f41a 5d3e 4043 a13d 7c63 f7bd 9241 ffbc
00000110: 533f dfbc ef1f 96be 5e0d f0bd ed6e 1fbe
00000120: 8af6 90be e8b9 87bd 2dd9 4e3e 116a 14be
00000130: 1e7f d23d ae3c dcbd d836 75bd 035a bfbd
00000140: 4f85 3a3e 340c 48bd 9e26 4ebe 27ae ac3d
00000150: e61e aebe 9f43 613d f25e a4be 1469 c5be
00000160: e6de 343d ed4a c9bd f697 98bc 2298 cebd
00000170: e8be bcbd 54b8 bebc 88d1 90be 51e5 f53d
00000180: a3ea c1bc 93f0 453d 6ef0 9fbe acad 013d
00000190: 7db6 ac3e ed95 883e a236 79bd 8544 88bd
000001a0: d537 aebe c7d4 aebd 1951 8fbe a7b3 3b3d
000001b0: 99ae 29be a6f9 2bbe e207 4dbd d202 25be
000001c0: d865 a8bd 6fc8 703d 83d8 7f3e d115 5d3d
000001d0: 28bf 20be 308f 92bd ae2d 203d 2152 40ba
000001e0: ab04 f63d 991f d73d ad94 1b3e 57f2 76be
000001f0: f52c e3bd f46d 543e 94af 2dbe ad3d 7dbd
00000200: fdc7 d73d 398a ffbd c798 00be aa4d a8bd
00000210: f4c1 0e3d 2d08 2e3e 5c2b 96bd d73e d2bd
00000220: 8fde 2c3e 7624 18bd dc3b 99be 778a 42bd
00000230: 292f 0b3e 9c3f dabe bb8c ab3e 451f 363e
00000240: 8e07 ae3d a431 083e 2df4 11be 7951 eb3d
00000250: 2519 2d3e 37f4 403d 605b 71be c6e7 223e
00000260: fe07 a2bd c4a7 b23e 11e7 723e 81ff 74bc
00000270: 6c47 24bd ca06 b13d 9969 08be de07 88bd
00000280: ade9 133d a75c 303e 8a3a 2b3e 3c32 0fbe
00000290: 010f 9c3d b50b 34bd 6877 6b3d c274 bb3e
000002a0: 21a7 63be 7f2d 8b3d 56e0 94bd fbe9 713d
000002b0: 1a76 0fbd fdf9 e73c d268 86be b40c 463d
000002c0: 55a0 863e f8db cf3d 8e9c 99bd 0603 42be
000002d0: de31 02bc 3bcb abbe f44e fe3c 5c2c 0c3e
000002e0: fb90 0bbd 3b70 b6be 12cc 18be f816 333e
000002f0: c8c4 e23d f39c 163e 8005 78bd 62c7 02bd
00000300: 8174 73be 24bf f3bc 7c4e c6bc 45df 853d
00000310: 30fc 423e c41f 96bd 1cc2 9ebd 651d 45be
00000320: ecc0 06be 7876 3abb 0929 693e 6740 03bc
00000330: 8a36 993d 27b3 d33d 02fe 95be 0cf8 f63d
00000340: 11a0 3cbe 8ef9 a6bc e4c1 053e dd25 4ebc
00000350: 2a0f 2e3e 60d9 5ebd 770e 623e b345 fa3d
00000360: 5b4c 293e 151c bb3d 0ca2 acbd 522b 923d
00000370: 681d 163e 03a1 1cbd c31e 0abe ff73 753d
00000380: 347d 4a3e 6749 35bc 853c 7e3d 435e 1fbe
00000390: e677 063e 0bca 4dbe f440 473c e117 d73e
000003a0: 9522 473e 4603 b83d 6f99 80bd c864 5cbe
000003b0: dc1e fc3d 9651 0c3d c956 cdbb 2a58 9b3e
000003c0: 0475 7e3d baac 943c 7b5d f83d 7019 4bb9
000003d0: 64b4 acbd bb94 10be c0e5 3abe 603f 8bbe
000003e0: 2a51 9d3e 5679 d3bc 6178 893e d5a0 8cbe
000003f0: 53e9 d7be 0145 083e 8880 3a3e c89d 563d
-0.20754883 -0.04632964 0.3942473 -0.12717071 -0.1268203 -0.21365215 -0.20727696 0.4064225
-0.043044463 -0.27615905 0.06979431 0.06315967 0.040429845 0.054035332 -0.27908057 0.079933286
-0.18900466 0.18806648 -0.07054285 -0.031331826 0.083545506 0.058392547 -0.3055255 -0.2276628
-0.12883888 -0.03564516 0.40163097 -0.25622508 -0.053217642 -0.03754107 -0.081000976 -0.13984418
-0.09036546 -0.03609462 0.058006994 0.017855236 -0.066757254 0.06565712 0.015520165 -0.04235863
0.1080144 -0.052963387 0.0038886913 0.10164806 0.14755684 0.07519901 0.0024379692 0.17456031
0.10387371 0.020719519 0.12989327 -0.08490887 0.05721917 -0.16576603 -0.3135821 0.003978336
0.14057867 -0.011459736 0.3318478 0.2639339 0.22825274 0.08255647 -0.26348394 -0.19851103
0.21592313 0.07874155 -0.12079522 -0.031159196 -0.027251875 -0.29321238 -0.117212996 -0.15569659
-0.28313094 -0.06627256 0.20200033 -0.14493586 0.10278152 -0.10753761 -0.059866756 -0.0934334
0.18214916 -0.048839763 -0.20131919 0.084316544 -0.3400795 0.05499613 -0.32103688 -0.3855673
0.044157885 -0.09828744 -0.018627148 -0.10087611 -0.092161 -0.023281254 -0.2828486 0.12006629
-0.023671454 0.048325133 -0.3123812 0.031659767 0.33732978 0.26676884 -0.060843118 -0.06653694
-0.3402697 -0.08536678 -0.2799156 0.045825627 -0.1657051 -0.16794452 -0.050056346 -0.16114357
-0.0822255 0.0587849 0.24984936 0.053975884 -0.1569792 -0.07156217 0.039106064 -0.0007336457
0.12012609 0.10504074 0.15193434 -0.24115883 -0.11092559 0.20745069 -0.16961509 -0.061826397
0.105361916 -0.12477536 -0.1255828 -0.08217938 0.034852937 0.16995306 -0.07332489 -0.10265892
0.16881774 -0.037144147 -0.29928482 -0.04749533 0.13592209 -0.42626655 0.33505806 0.17785366
0.08497535 0.13300186 -0.14253302 0.11490149 0.16904123 0.0471079 -0.23570013 0.15908727
-0.07911681 0.3489362 0.23720957 -0.014953495 -0.040107176 0.08643873 -0.13321532 -0.066421255
0.036111522 0.17222844 0.1672155 -0.13984007 0.07620049 -0.043956477 0.05748692 0.36612517
-0.22231723 0.06795787 -0.07269351 0.05906103 -0.03502474 0.028317446 -0.26251847 0.04835196
0.262942 0.101493776 -0.075005636 -0.18946466 -0.00794646 -0.3355349 0.031043507 0.13688797
-0.03407381 -0.356325 -0.14921597 0.1748923 0.11072689 0.14708309 -0.06055212 -0.031928428
-0.23774911 -0.029754229 -0.024207346 0.06536726 0.19041514 -0.073302776 -0.07751867 -0.19249494
-0.13159531 -0.002845196 0.2276956 -0.00801096 0.074811056 0.10336905 -0.29295355 0.1205903
-0.18420435 -0.020382669 0.13062245 -0.0125822695 0.16997972 -0.054406524 0.2207583 0.12220325
0.16533034 0.091362156 -0.084293455 0.07137169 0.14659655 -0.03823949 -0.13488297 0.059925076
0.19774324 -0.011064864 0.062069435 -0.15563302 0.13131675 -0.20096605 0.012161482 0.42010406
0.19446786 0.08984999 -0.06279265 -0.2152282 0.123105735 0.034257494 -0.006266449 0.303407
0.062123314 0.018148769 0.12127205 -0.00019369065 -0.08432844 -0.14119236 -0.18251705 -0.2719679
0.30725986 -0.025814693 0.26849654 -0.27466455 -0.421702 0.13307573 0.18213093 0.052396566

hidden_list.1.bias f4 [128]
00000000: 875b 8fbd 4163 8dbd 7be8 5e3e e512 a63c
00000010: 6e79 91bd 6aff b63b 3484 8a3d 5bdd 07be
00000020: c148 52bd 7401 8dbe 2129 19bd cf7a a9bd
00000030: 1170 453e 8b22 813d 4621 3c3e 2e48 773e
00000040: 477e b33e c772 cfbd a204 9dbb ab03 30bd
00000050: 6cb3 cabd 4d75 99bd 42ad 8e3d d4a7 223d
00000060: a82b 5cbd a9e1 373e 3aba 853f 9139 dd3c
00000070: 4d86 bb3c 3d27 3b3e e67d ca3c 4539 b2bd
00000080: 9347 0fbd a67e 033d 35e2 4abd b7f4 713c
00000090: dc95 dbbd c27d c1be 0cae 913e 2dc8 04be
000000a0: 7c7f 91bd 10b0 0cbc c17d 4fbd 8ff0 81bd
000000b0: 7c5b 2fbd e6b4 563c e9db 57bd 0f11 43bc
000000c0: ef1c 7e3c 5d2f 20be 379a 6abd eaaf 643e
000000d0: 64c3 b3bd 04f8 813e 0995 b13e 4c96 a93c
000000e0: 6acf 043e 4134 573c 4204 14bc 7ad1 3ebd
000000f0: 4749 a7bc c766 26bd 0429 ffbd b352 583d
00000100: eb1e 0abc 3aa1 a5bb 8f57 a7bd b8f3 7b3e
00000110: 7bbb b13c 4aeb 75bd 1fab d13d e0ed 03bd
00000120: d923 d7bc c7d0 f03d 44df 993e e951 ecbd
00000130: 4e7e 87bd 91aa 9c3c f139 273e e49b 98bd
00000140: d41a 24be ebaf c73e 6a86 45bd 1db5 76be
00000150: 597c 73bd 7287 e4bc dcd4 893e 8fb7 3b3e
00000160: 1818 9b3e c386 a7bd f896 a7bd aaf7 96bb
00000170: 620b 013e 0652 b8bd e6be 87bd f5fa febd
00000180: 8cf5 12be 96d4 bcbd e2f5 423d 9d96 07bd
00000190: da0d bcbd b7a1 f33c 71e7 f4bc cfd4 3cbd
000001a0: 17dc 83bd 6fdb d9bd a43e 4cbe 96fd ef3e
000001b0: 884d da3d 90bf 6c3d dc61 a4bd 1c9b acbd
000001c0: 05fe 193d c168 cabd 2418 16bd ef8c 92bd
000001d0: d61d a2bc e650 84bd 82e6 d3bd 8fe8 493d
000001e0: ba76 eb3c a9ab b03d a8b7 febc 8b70 0ebd
000001f0: 1ea1 5fbc 9a0c 80b8 d345 b53d cfb9 c2bd
-0.06999879 -0.06903697 0.21768372 0.020272681 -0.07103239 0.005584647 0.06763497 -0.13268034
-0.051338915 -0.2754017 -0.03739274 -0.08275377 0.19281031 0.06305417 0.18372068 0.24148628
0.3505728 -0.10129314 -0.004791812 -0.042972248 -0.09897503 -0.074930765 0.0696664 0.039710835
-0.05375257 0.17957176 1.0447457 0.027004989 0.022891188 0.18276687 0.024718236 -0.087023295
-0.034980368 0.032103203 -0.049532134 0.014767817 -0.10721943 -0.37791258 0.284531 -0.12966986
-0.07104394 -0.008586898 -0.050657038 -0.06344711 -0.042811856 0.013104653 -0.052699957 -0.011905923
0.015509828 -0.15643068 -0.057275977 0.22332731 -0.08777502 0.25384533 0.34684017 0.02070155
0.12969747 0.013135017 -0.009034218 -0.04658649 -0.020420684 -0.04062536 -0.12458995 0.052813243
-0.008430223 -0.00505462 -0.08170997 0.2460469 0.021695843 -0.060038842 0.10237717 -0.032209277
-0.02626221 0.11758571 0.3005315 -0.115390606 -0.066158876 0.019124301 0.16330697 -0.07451609
-0.16025859 0.39001402 -0.04822389 -0.24092527 -0.05944476 -0.027896617 0.2692021 0.18331741
0.3029182 -0.08180001 -0.08183092 -0.0046071606 0.12601998 -0.0900002 -0.06628208 -0.1245021
-0.14351481 -0.09220235 0.047597773 -0.03310262 -0.091823295 0.029740198 -0.029895516 -0.046101388
-0.06438463 -0.10637557 -0.1994577 0.46873158 0.10659319 0.057799876 -0.08026478 -0.08428022
0.037595768 -0.098832615 -0.036644116 -0.07155787 -0.019789618 -0.06460743 -0.103467 0.04929405
0.028743137 0.086264916 -0.031093433 -0.034775298 -0.013649253 -6.105863e-05 0.088512085 -0.095080964

fc_out.weight f4 [4, 128]
00000000: 236b 7bbe bc86 873e d736 de3d 2f10 88be
00000010: 7abf 2abd 62ac 393d cc6c 743e 404b 86be
00000020: 953f 75bd 773a 1ebe 31ee 8ebd f0ec fe3d
00000030: 95e7 07bc 6658 4abd cbbd f0be 0886 86bc
00000040: cdf7 be3d 20ed 2dbc 59a5 71be 5ee2 373d
00000050: 3933 873c 2122 afbd c7b5 e23d 4ddb c63d
00000060: 01fe 543d c167 913e 5e6b 8d3e 3ca0 e1bc
00000070: 26de 45bd 6fb7 663e b9d5 613d e41d 25be
00000080: dbeb 22bd c640 5bbd 6d10 44bd 9384 003d
00000090: 8ea5 32bd 3825 d2bd 5384 1d3e 683f 313e
000000a0: 4e77 87bd e93a 71bc f90e 963d 9ded 63bd
000000b0: 48fc da3b 83bf 7d3d 3819 6fbd 819a 223b
000000c0: 3a66 8c3e 36e6 8cbc c598 60bc a4c5 893e
000000d0: 2eb1 cbbe 1e19 323e f0d9 a83d 7044 1b3e
000000e0: 9523 133e 2686 9ebe eb21 4fbe d661 32be
000000f0: 3c23 783d 2707 f8bd 0a6a ccbe 9a02 0b3d
00000100: 56d4 523c 3f1a 6bbe 4f1f 7ebd c252 833d
00000110: 5083 903e 0d16 49be 921c 1a3e 6644 94bd
00000120: 343a 203d cb2a cc3e e74f 8c3d 5c55 61bc
00000130: bef8 87bb f8d9 39bd cd11 583e 3fd7 ee3d
00000140: 3f60 aabe 89bf 273e a2a4 c8be e987 97be
00000150: d856 8a3c 1b03 f1bd 2604 6d3e 1fd0 623d
00000160: ec77 bc3d 9d68 30be 771c b6be 0a08 353e
00000170: e442 343e 2c98 f1bd a2ce 29bd d240 0abe
00000180: 57fe 74bc 98b4 25bd 7606 103e b810 6abc
00000190: b7ef a03d 1fa5 f53c 7e29 03bd c735 62be
000001a0: 912b 313b f3ff 19be 3e61 f2bd 343e 573e
000001b0: 9181 6dbe 7fba abbe 816e b83b f742 1ebc
000001c0: 18e1 bebc 79ea e2bc 61d5 be3c 51f5 c7bc
000001d0: 2f18 9e3c c394 ac3d bf3d a3be 22bf 843c
000001e0: 9498 983d 6fe4 fd3d 1d95 2f3d 9c1d dcbe
000001f0: 5ede 043b 7469 493d 1a73 05bf 1416 a73d
00000200: 2f27 10be 1c7c d6bd a2e6 333e 8ae8 1f3e
00000210: 17a6 983d dac2 0f3c 8f40 083d f548 2abe
00000220: 0d2c 583d 265d 73be ed59 b4be 42df d33c
00000230: 793f 083e a041 42bc c661 693d 7f7c be3d
00000240: c637 113e 1b58 d2bd c73e 35bd 01a3 6abd
00000250: 497a 44bd 3692 033e d19f 383e 3a69 bbbd
00000260: 7ed6 143c 9c9f ce3e 8110 923e c0f9 963c
00000270: 4d6e 17bc 8de6 223e 45af 9bbd 37b6 0e3e
00000280: dbbf 21bd 06b1 943e ed30 50bd 7f1d 15bd
00000290: ac11 743d da65 4ebd ff99 a63d c72a 49be
000002a0: 675e e5bc b8f9 8dbd 9a40 873d e764 3a3d
000002b0: 7aea 0d3d e505 813d df4c b136 417c 89bd
000002c0: 7a4d 4e3d ecab 843d a9c3 07bd ef6b 3b3e
000002d0: 8785 0cbe 2f9b 563e 871c b33d 17cb 02be
000002e0: d411 153e 67fa 68bd f11f e93c 1cda 4cbe
000002f0: f268 c0be a935 e23d b6a4 133e ecc0 3bbe
00000300: d146 863c a07d ec3c 6221 a8bb 7e8a 033d
00000310: 4b02 b03c 8f5c 7c3e 310d bc3d 9812 61bd
00000320: 1e75 1e3d ecde c6be d88d 473e fee2 9d3d
00000330: 6c1a e4bb d847 51bd 7dee f73d 4b19 4dbe
00000340: 88a8 19be 153f df3d 62bf e9bd 90d9 75be
00000350: c1e9 bcbc 1284 58be 5631 823e 382c 6b3d
00000360: 9336 da3d e376 9d3d 1722 b3bd bc9b 593e
00000370: bd93 16be d7a0 a9be b3a1 78be 9be7 403d
00000380: 3958 a73d eedc 57bd 831e 493e 28ec a63b
00000390: dd3a 0dbd 63e3 8ebc 5a98 11bc b538 d0bd
000003a0: aee1 13bb 83b6 913d 5a29 bfbc 805a 2b3e
000003b0: acc1 673e 7029 febc d249 f7bd e9bb 41bc
000003c0: 545f 603d 2e68 723e 085d eb3c 2037 34bc
000003d0: 8252 d73d 59b3 fbbc 2300 1cbe 9273 b9bd
000003e0: d5f8 9fbe eb44 583e c895 3c3c 9a60 80be
000003f0: 19d3 033d 0e02 91be e3d2 c33c 5bbe c93d
-0.24552588 0.26469982 0.108503036 -0.26574847 -0.041686513 0.045330413 0.23869628 -0.26229286
-0.05987509 -0.1545199 -0.06979025 0.12447536 -0.00829496 -0.04940071 -0.470198 -0.016421333
0.09324608 -0.010615617 -0.23598231 0.044893615 0.016503917 -0.085514314 0.110698275 0.09709797
0.05200005 0.2839947 0.27620977 -0.027542226 -0.04830756 0.22530912 0.055135462 -0.16124684
-0.03977571 -0.05352857 -0.047867227 0.031376433 -0.043614917 -0.10261005 0.15382509 0.17309344
-0.066145524 -0.014723518 0.073270746 -0.055646528 0.0066829063 0.061950218 -0.05837366 0.002481133
0.27421743 -0.017199617 -0.013708298 0.269086 -0.39783615 0.17392394 0.08244693 0.15162826
0.14369042 -0.30961722 -0.20227782 -0.17420134 0.060580477 -0.12110739 -0.3992465 0.033938028
0.012868008 -0.22959231 -0.062041577 0.06412269 0.28225183 -0.19637318 0.15049961 -0.072396085
0.039118007 0.39876398 0.06851178 -0.013753261 -0.0041495254 -0.045373887 0.2110054 0.11662149
-0.33276555 0.16381659 -0.39188105 -0.2959588 0.016887113 -0.117681704 0.23146114 0.05537426
0.09202561 -0.17227407 -0.35568592 0.17678848 0.17603642 -0.117966026 -0.041456826 -0.1350129
-0.0149532175 -0.04045543 0.14064965 -0.014286213 0.07858222 0.029985962 -0.032021992 -0.22090827
0.0027034024 -0.15039043 -0.11834954 0.21019822 -0.23193957 -0.33540723 0.0056284075 -0.00965952
-0.023300692 -0.027699696 0.023295106 -0.024408968 0.019298641 0.084268115 -0.31883046 0.01620442
0.07450977 0.12397086 0.042866815 -0.4299134 0.0020274143 0.049172834 -0.52128756 0.08158508
-0.14077447 -0.10472891 0.17568448 0.1561605 0.07453554 0.008774484 0.033264693 -0.16629393
0.052776385 -0.23766002 -0.35224858 0.025863294 0.13305463 -0.0118564665 0.05697801 0.093010895
0.14181432 -0.10270711 -0.044249322 -0.05728436 -0.047968183 0.12848744 0.18029715 -0.0915093
0.009084342 0.40356147 0.28528216 0.018429637 -0.009242606 0.1590826 -0.076017894 0.13936697
-0.03948961 0.29041308 -0.05082791 -0.036405083 0.059587166 -0.050390102 0.08134841 -0.19645225
-0.027999116 -0.06932396 0.06604119 0.045506384 0.034647442 0.062999524 5.28396e-06 -0.06713153
0.050366856 0.06478104 -0.03314558 0.18302892 -0.13722812 0.20957635 0.087456755 -0.12772785
0.14557582 -0.056879427 0.028457614 -0.20005077 -0.37580067 0.11045391 0.14418301 -0.18335313
0.01639119 0.028868496 -0.0051309327 0.0321145 0.021485468 0.24644683 0.091822036 -0.054949373
0.03868591 -0.3884195 0.19487703 0.07709311 -0.0069611575 -0.051093906 0.12106035 -0.2002918
-0.15005696 0.10900704 -0.114134565 -0.24008775 -0.023060681 -0.21144131 0.25428265 0.057415217
0.106549405 0.076886915 -0.087467365 0.21250814 -0.14704795 -0.33130524 -0.24280433 0.047095876
0.08171124 -0.05270093 0.19640546 0.00509407 -0.034479965 -0.01744241 -0.008886421 -0.10167066
-0.0022564935 0.071148895 -0.023335148 0.16733742 0.22632474 -0.031025618 -0.12074627 -0.011824586
0.054778412 0.23672554 0.028730884 -0.010999471 0.10513784 -0.030725168 -0.15234427 -0.090552464
-0.3124453 0.2112004 0.01151032 -0.250737 0.03218374 -0.2832188 0.02390427 0.098507605

fc_out.bias f4 [4]
00000000: 9bbd 2b3f 06ae 013f d353 1d3f 2079 0f3f
0.6708619 0.50656164 0.6145603 0.560442
