checkpoint_wper.pth (torch_old, 286636 bytes, 8 tensors)

fc_in.weight f4 [128, 37]
00000000: 91d9 97be aab5 4e3e 695b 3fbd becc b5bd
00000010: 788b 89bd 7a82 a9be 4b6d 803d 120d 943e
00000020: 37ca 0cbe 5aa9 62be 9736 c9bd b2ab 0e3d
00000030: 4402 24be 5b51 53be c97f 1dbe 93b8 15bd
00000040: da10 0b3e 5548 0b3e 2e2f 9dbe 067a 9ebe
00000050: 33b4 0abd 539a 803e fb1f 6639 123d 95bd
00000060: 18d2 44be d715 c0bd 3086 9e3e accd 58be
00000070: 41ea c5be 71d2 69be 5382 a6bd b842 263e
00000080: 5a5e e2bc 6c31 01bf b6f2 09bf 708b 28bd
00000090: 0c66 1ebd d1dc 793e a3bd 7cbe c776 81be
000000a0: ad08 30be 64ed 44be 4748 a43c 2d31 71be
000000b0: 0ae8 eabe ca6e 8c3c b2dd 57bf 77d8 00be
000000c0: 2f70 e6bd b8ea 7a3d 77ff d93d f1b5 803e
000000d0: d7fe 2abe 3d43 f8be 65e2 043e 1f3c 7ebd
000000e0: fc98 9fbe dae7 043d 79e5 34be e371 9cbe
000000f0: 5566 543d 104d 873e 5f6a c0bd aeb1 2ebc
00000100: 996a 4a3d 1a3b 48be a2b6 aa3b f886 113d
00000110: 7be0 a53d 49ea 3cbd de12 05bc 4204 82bc
00000120: 1cbd 0c3d 764e 54bd 2ec1 f83d 63b6 0b3e
00000130: 8147 e43d 4c17 73bd 0514 8fbd 7d84 fdbd
00000140: fd20 ffbd b7e4 843e 58a0 82bd 2e49 60be
00000150: 16c3 8b3e c66b 82be 2d28 f8bb 5303 7cbe
00000160: c1d1 66be f591 aa3d 06c5 e2bd 6a4e fd3d
00000170: ebf9 ff3d 8c47 02bf 1716 dfbe 25d2 c9be
00000180: 3101 fd3d bfbd 763e 5c33 a9be 78c0 10be
00000190: 7a2b cbbd 23df 503e 5d0a 6e3c 9b29 debe
000001a0: 0d4b 803c 571e 823d 4863 15be 6875 7fbe
000001b0: 3749 bebc a583 45bd be02 16bd fd36 983e
000001c0: 7309 6ebe 9fa4 843d b8aa 7ebc 3328 38bf
000001d0: dc28 95be 5b78 72bc 0407 0b3e 2e6e 18bd
000001e0: bbda 0ebf b0f1 71be e5e5 8d3d 27ac 51bd
000001f0: d4a2 a13c edd1 69be cf91 82bc 6ae1 b8bd
00000200: 2c0b 19be 51c1 5abd 3ee4 d6be 9df2 7c3c
00000210: 649e 423e 6a09 77be 1541 8c3c afda 45be
00000220: 594b 48bc 1eb4 95bc a23c da3d cc73 a43d
00000230: b252 1cbe e5af a23d 6186 9e3d 461b 363d
00000240: e480 b8be 2113 c5be a149 453e 263f bc3c
00000250: 9d68 42bd 5f8f 1cbe ebf9 d3bd fc01 8fbe
00000260: 56dc c6be 0fc6 38be b81e 823e 1c87 2d3d
00000270: 56e9 bbbe 01a9 12bf f464 4d3d d01d 01bd
00000280: bd52 d33c 598e 89be 5630 df3d 0632 7cbe
00000290: 3baa 03be 1613 643d 49d8 d0be 896d 963c
000002a0: fe24 81be 4552 093e 3aef 043d cb59 d53c
000002b0: 2b03 db3e dc94 28be acf3 84bd 2a9a bc3d
000002c0: 2e78 963d 03e4 b4bc e267 63be 9ce5 3bbd
000002d0: 3ce0 103e 902e b73d 295e 38bd bdbf 393e
000002e0: fc30 153c ba44 f5bb b98d 9b3c d9c5 d8bd
000002f0: 2fdf 58be 98cf 9fbc 41c1 d2bd f11d 1c3e
00000300: d7ff c73d 113f babe f759 94be 6bda 72be
00000310: f0b2 6a3d 2c36 873c e968 88be 656a 01be
00000320: 3efa 06bd d69b 1d3e dca4 80be 4584 05be
00000330: 536b 22bf fe6f 873e 2c8f 843d 1b5e 67bd
00000340: db70 65be 7bca 823c ccff 0bbd 0214 26be
00000350: 1fb5 923c c7c8 d7be 8f89 b4be c4ee 39be
00000360: 08e0 bcbe cd9e a63d 32f4 353e d2ed 1fbe
00000370: 58a8 6bbe 4856 b1b9 a127 0e3e cb7d e5bd
00000380: e67a aabe b331 bdbe b7c7 47be 0fea ddbd
00000390: 3b71 10bf ae97 c7ba c29b fe3c 17ff 4f3e
000003a0: 0cbe 51be 9f6a 383c 16e4 ff3c 2018 683e
000003b0: 197a 9abe 2abb 43be 221b 393c fb75 35be
000003c0: aece be3d a1c6 dd3d 8ffa 98bd 770b 71bc
000003d0: 8642 47bd d35a 4bbe 6bf8 113e 074c 0ebe
000003e0: 9851 04bf f2a3 893d 57ad b5bc 5b3f f2bd
000003f0: 4ce8 053e 379a c8bd f4bf 1dbe 38ec 12be
-0.29658177 0.20186487 -0.046718035 -0.08876942 -0.06716055 -0.33107358 0.06270846 0.28916222
-0.13749014 -0.22134915 -0.09824865 0.03483171 -0.1601649 -0.20636503 -0.15380777 -0.036552977
0.13580647 0.13601811 -0.30700058 -0.30952471 -0.033863258 0.2511774 0.00021946423 -0.07287039
-0.1922077 -0.093791656 0.30961752 -0.21172208 -0.38655284 -0.22834183 -0.08130326 0.16236389
-0.027632881 -0.50466037 -0.5388597 -0.041148603 -0.03867154 0.24400641 -0.24681716 -0.25285932
-0.1719081 -0.19231182 0.020053996 -0.23553915 -0.45880157 0.017142672 -0.84322655 -0.12582575
-0.11251866 0.061259 0.10644429 0.2513881 -0.16698776 -0.484888 0.12976988 -0.062069055
-0.31171405 0.032447673 -0.17665662 -0.3055564 0.051855404 0.26425982 -0.09395289 -0.010662479
0.049418066 -0.19553795 0.00520976 0.035529107 0.08099457 -0.04612187 -0.008122174 -0.01587117
0.034360036 -0.05183264 0.12146221 0.13643794 0.11146451 -0.05934839 -0.0698624 -0.12378786
-0.12457464 0.25955746 -0.063782394 -0.21902916 0.27297276 -0.2547285 -0.0075731487 -0.24610643
-0.22540952 0.0832862 -0.110727355 0.12368472 0.1249884 -0.5089042 -0.4357154 -0.3941814
0.12353743 0.2409582 -0.33046997 -0.14135921 -0.09920402 0.2039762 0.014528838 -0.43391117
0.015660787 0.06353443 -0.14588654 -0.2494713 -0.023228271 -0.04822125 -0.03662371 0.29729453
-0.23245792 0.064767115 -0.015543632 -0.7193634 -0.29132736 -0.014799203 0.13576895 -0.03721445
-0.55802506 -0.23627353 0.069286145 -0.051189568 0.019730963 -0.22833987 -0.015938668 -0.09027369
-0.14945668 -0.053407017 -0.4197101 0.015438703 0.19005734 -0.24124685 0.017120877 -0.19321702
-0.0122249955 -0.018274363 0.10656096 0.08029899 -0.15265921 0.079437055 0.077404745 0.044459604
-0.36035836 -0.38491157 0.19266368 0.02297933 -0.04746305 -0.15289067 -0.103504024 -0.279312
-0.38839978 -0.18044303 0.25414062 0.04236518 -0.3670146 -0.5728913 0.050145105 -0.031522572
0.025796289 -0.26866415 0.10897891 -0.24628457 -0.12857907 0.055682264 -0.40790012 0.018362777
-0.25223535 0.1341029 0.032454707 0.026043793 0.42775854 -0.16463035 -0.06491789 0.09209092
0.07347141 -0.02208138 -0.22207597 -0.04587327 0.14148039 0.08944428 -0.045011673 0.18139549
0.009105917 -0.0074849995 0.018988477 -0.105846114 -0.21178888 -0.019508168 -0.102907665 0.15245797
0.097655945 -0.3637624 -0.28974888 -0.23716132 0.057299554 0.016505323 -0.2664254 -0.12638243
-0.032953493 0.15391478 -0.25125778 -0.13038738 -0.63445014 0.2645263 0.0647262 -0.05648623
-0.22406332 0.01596569 -0.034179494 -0.1621857 0.01790863 -0.42145368 -0.352612 -0.18157488
-0.36889672 0.081357576 0.17768934 -0.15618065 -0.23013437 -0.00033824355 0.13882305 -0.11205634
-0.3329689 -0.3695198 -0.19509779 -0.10835659 -0.56422776 -0.0015227699 0.03108013 0.20312153
-0.20482653 0.011255889 0.03123669 0.22665453 -0.30171278 -0.19114366 0.011297973 -0.17720787
0.09316765 0.10828901 -0.07469665 -0.014712206 -0.048647426 -0.19858865 0.1425492 -0.1389619
-0.51687 0.06720723 -0.022177381 -0.1182849 0.13076895 -0.09795039 -0.15405256 -0.14347923

fc_in.bias f4 [128]
00000000: d85d 18bd 0bad e5bd 23a5 4abe 1c63 45be
00000010: 0777 c8bd 1103 6ebe a171 d0bc 04fb 403d
00000020: 023e 83be 39ba 12bd 250e 1fbe 013f aebc
00000030: c835 c2bd 3e62 dabd 7a75 30bd 3bb8 8ebd
00000040: 265c 893c e0ff cfbd 6858 26be 6915 69bd
00000050: 33be 52be 0fad fc3d 3842 a63d a9a1 1dbd
00000060: aeb6 943c 6a8a 053e db63 123c ec60 39be
00000070: 2b91 30be ba7b 44bd e017 073e c134 f13d
00000080: 932a 51be 1283 0e3e b995 39bc d673 2abe
00000090: c7c2 6ebd e7b7 6cbd a967 783d 87da 2ebc
000000a0: 2e12 ad3d de61 f23b 5c9e 3b3d 8733 54bd
000000b0: 548b 0bbd 67f6 e7bd d536 6fbd 7caf f1bd
000000c0: 7fbc 6cbe c914 1cbd 49b6 413d eeca cabd
000000d0: 1cbd afbd 57f8 da3d 62a7 4bbd 69f9 653d
000000e0: c51f 35be fb76 dcbd 7051 4e3b 8b49 303b
000000f0: 8953 07be cd8e 673d c5c2 90ba a716 3cbd
00000100: 6966 b53d 7a67 1a3c bbec bebc 8905 f2bd
00000110: a27a 2cbe abe5 13be c737 6fbe 409d 94bd
00000120: ecee c93d 25c8 54be aa0c 55bd 7b0f 02be
00000130: 4626 803d ad13 6ebe 41c7 893d 6f58 b0bd
00000140: f96c 0e3c caf4 e0bc 625c 0e3d dcf6 a7bd
00000150: 7571 8bbd 8cae 1e3e aca8 483c d99a 30be
00000160: dba4 b1bb 0074 e53c ce4a df3d 5fab 01be
00000170: da4a 7bbe 823c 2cbc 515a dbbc dc77 313e
00000180: 703e 8ebd 5d5f 07be c8ef ecbd 90b1 433e
00000190: 0204 60be b833 6dbe be1a e33d e410 943d
000001a0: f357 70be fb7a 8cbe 3d98 42bd e88f df3c
000001b0: 81db dcbd e946 bdbd fe3d ccb9 4e76 e2bb
000001c0: 225d e5bd 383f e8bd 713d 31bd ee72 123d
000001d0: e1be 99bd 90f9 513d f713 7fbd 2a84 3ebe
000001e0: ab4f 37bd 93e3 6c3d 63da 15bd e7f8 8bbe
000001f0: 8b03 0bbe 51d7 60bd c633 163e 5980 493d
-0.03719887 -0.11214646 -0.19789557 -0.19276088 -0.09788328 -0.23243357 -0.025444807 0.047114387
-0.25633246 -0.035822127 -0.1553274 -0.021270277 -0.09482914 -0.106632695 -0.043080784 -0.06968733
0.016767573 -0.10156226 -0.16244662 -0.056905184 -0.20580368 0.12337696 0.08118099 -0.03848425
0.018153515 0.13041082 0.00893494 -0.18103379 -0.17242877 -0.047969557 0.13192701 0.1177764
-0.20426397 0.13917187 -0.011327201 -0.1664575 -0.058291223 -0.05779257 0.060645733 -0.010672218
0.08450733 0.0073969206 0.04580532 -0.051806953 -0.03406842 -0.113262944 -0.0584019 -0.11801049
-0.2311878 -0.03810576 0.04729298 -0.09901987 -0.085809916 0.10691898 -0.049720176 0.05614606
-0.176879 -0.10764881 0.0031481646 0.0026899304 -0.1321546 0.05653267 -0.0011044374 -0.04592004
0.08857424 0.009424085 -0.023306241 -0.11817462 -0.16843656 -0.1444308 -0.23361121 -0.072565556
0.09860024 -0.20779474 -0.05201403 -0.12701218 0.062573 -0.23249693 0.06727458 -0.08610617
0.008692973 -0.027460475 0.034756072 -0.082013816 -0.068087496 0.15496272 0.012247246 -0.1724657
-0.0054212636 0.028009415 0.1090294 -0.12663029 -0.24540272 -0.010512473 -0.026776465 0.17330879
-0.06945503 -0.13219972 -0.11569172 0.19110703 -0.21876529 -0.2316426 0.11089085 0.07229784
-0.2347105 -0.27437577 -0.047508467 0.0272903 -0.107840545 -0.09242041 -0.000389561 -0.0069110757
-0.11199404 -0.11340183 -0.043271486 0.035754137 -0.075071104 0.051263392 -0.0622749 -0.18605104
-0.04475371 0.05783422 -0.036585223 -0.27338335 -0.1357557 -0.05489284 0.14668187 0.049194667

hidden_list.0.weight f4 [256, 128]
00000000: fdf8 a53b 889e fbbd 02a6 abbe c54b 8d3d
00000010: 4b1d e5bd 2a31 b1bc f73e 0e3e f700 743d
00000020: 8591 153c c766 cabd dbc3 3cbb bced 0f3d
00000030: 4f1d 22bd bc33 cebd 3ce9 c1bd 35c6 173e
00000040: 6ec5 3cbd dc9b 95bd 8720 da3d 5ae9 e3bb
00000050: 219f 6f3d 53d1 c23e ae53 a3bc d4d1 abbd
00000060: 4ee8 e33c 29cc 353d 1ffe 6fbe e1b9 5bbe
00000070: 58f8 b93b b652 f8bc d6d4 833d f68c 363e
00000080: c7b0 56be a0ba c0bd d75f 3cbe 19ec 023d
00000090: 6e3e b43d 058b 3d3e 8184 bebe f29d c03d
000000a0: 2f5c 5c3b 1fbb bdbd e851 45be 4108 edbc
000000b0: 0760 94bd 3c03 48be 6615 97be a6af a5bd
000000c0: 939a 45be 8424 7dbe b0c3 48be 3e63 1ebe
000000d0: cb69 1abe 89a7 a93c 2012 173e 55de ecba
000000e0: 5296 8cbd 0c00 cdbe 5aa4 1c3e 2bc5 22bd
000000f0: fad2 05be 66c1 39be f893 db3d f329 cabd
00000100: 6be8 be3b 2867 02be 55fa 523e 6a93 3cbe
00000110: 21dd b4be 52cc 23bd b8d4 003e e9bb acbc
00000120: c624 0ebd 02fb 133e 8337 a1bb a12a 0abd
00000130: 4359 8fbd c543 46be c01b d23d 1c85 7d3b
00000140: 05c5 893d fa0d 8b3d 269e 2b3e aa74 abbc
00000150: 1948 dabd 466f 11bf e7ba a6bd 856b 56bc
00000160: f808 40be f138 6f3e bf43 26be 2e7a 80bd
00000170: 9066 843c 27d2 923e 4c1a 313e 04eb 1bbe
00000180: 7897 0ebe d1d3 e1bb a78e 78bd 3ae6 193e
00000190: a901 dbbd 9513 91bd 2c47 973d 40b5 02be
000001a0: 5448 c6bd 2224 28bd a4fc 9c3d 9fcd f83b
000001b0: 4d30 d93d 596c 203d 5833 9ebb 56b6 82bd
000001c0: cebf 8fbe 37d2 733d 0bca d8bd a274 fd3d
000001d0: b73b b03c 107b 6c3e 4740 a3be 4e17 86bd
000001e0: 8f6c 18bc 048b 73be 5334 633e 76f1 453d
000001f0: a3f3 1d3e 790c ae3d 20b9 c53e fac1 8dbd
00000200: 321a f63d f5ff 40be b5ee b13d 3b84 7abd
00000210: 9a01 0dbd 4ab6 10be d279 7dbd df30 c0bc
00000220: ad99 6c3e c684 45bd 60dc e93c 6d41 18be
00000230: 0858 5bbd 3f99 113c 4203 95be 412c 9f3c
00000240: 40aa d43d 4125 cc3d b478 7fbd f352 683d
00000250: 5113 9ebc 8643 23be b729 063e 6ffc 45be
00000260: e20e 94bc fc72 76bb 7f42 87bd 19d2 a1bc
00000270: 883e 75bd 35b2 c4bd 2d17 c43d b5b5 f83c
00000280: ecaf 1b3e a2a6 cabe f19e 303d fb3a 423c
00000290: c472 23bc 91b6 8abd 9b84 67be 9bd2 e33c
000002a0: 8a7c 0fbf 502a a53d 21fb 48be c3e7 813d
000002b0: da7f 1b3d 22f6 d23c 6185 84bd ae95 663e
000002c0: 7eb3 f93d e9e9 b23d e3bf 1e3d eb7b 78be
000002d0: 6c7f 44bc c1d0 a1be 138b 8e3d 76fc 8abe
000002e0: d114 66be f97d 633c eb3a c1bd cfec a4bb
000002f0: 40f3 03bd 13f1 32be f829 a23d 4149 a93d
00000300: d1d7 6f3c 82d7 a33d 867c 9ebc 014b 543e
00000310: ab2c 28bd 9b19 023e 7f74 c13c 10c2 88bd
00000320: cb47 a03d 3e42 3a3e 856a 3abe c9ba c23d
00000330: dd0c e93e e49c 403c f1bf 41bd 03a5 0e3c
00000340: dd19 bfbd c5e3 e83d 8fd8 ca3d dc2b 88be
00000350: 31ef 35be 3bbc b6be 4f0e bc3a a223 8fbd
00000360: 2e97 533c 1e0d 4e3e 9465 a2bd 62c1 d13d
00000370: 6d5e 113e 509e 95be cc4f 91bc 199d f6be
00000380: 0ab2 14be d6ba 12be f9b5 27bc c428 363c
00000390: 9d17 a43e 0f9a 133d 64cc 97be 52af 203e
000003a0: 8e6a 4cbd a519 13bd 20e8 613d 40d1 6a3e
000003b0: 475b 573d cee3 ab3c dc19 9c3c 21f3 8dbc
000003c0: a1ca 49bd 002f 533d f56d 173d 21a4 2b3c
000003d0: 9e5c ccbc 9a63 95bd 688a 47bc 7f40 debd
000003e0: 31d6 b2be 6bca 95bd 8483 f53d 504b e8bd
000003f0: 6b6b 4bbe 6cd8 1e3d 552a c63d a42a 77be
0.005065082 -0.12286097 -0.3352509 0.068992175 -0.11187228 -0.021629889 0.13891207 0.059571233
0.009128933 -0.098828845 -0.0028803262 0.03513883 -0.039578732 -0.10068461 -0.09468314 0.14821704
-0.04608672 -0.073051184 0.10650735 -0.006955308 0.058501367 0.38050327 -0.019937363 -0.08389631
0.027820732 0.044384155 -0.23436783 -0.21457626 0.005675357 -0.030312877 0.064370796 0.1782721
-0.20965873 -0.09410596 -0.18395935 0.03196344 0.0880097 0.18510063 -0.37210467 0.09405126
0.0033624282 -0.09264206 -0.19269526 -0.0289346 -0.07244878 -0.19532484 -0.29508513 -0.08090143
-0.19297247 -0.24720961 -0.19605899 -0.15467545 -0.1507942 0.02070977 0.14753008 -0.0018071631
-0.06864609 -0.40039098 0.1529707 -0.039738815 -0.13068762 -0.18140182 0.10721582 -0.098712824
0.005826046 -0.12734663 0.20603307 -0.18415609 -0.35324958 -0.039989777 0.12581146 -0.021085696
-0.03470304 0.1445122 -0.0049199476 -0.03373206 -0.06999447 -0.1936179 0.10259199 0.0038684076
0.067270316 0.06789775 0.16759548 -0.020929653 -0.10658283 -0.56810415 -0.081411175 -0.013087158
-0.18753421 0.23361565 -0.1623678 -0.06273304 0.016162187 0.2867596 0.17295188 -0.1522637
-0.13924968 -0.0068917056 -0.06068292 0.1502923 -0.10693676 -0.07083813 0.07386622 -0.12764454
-0.09681764 -0.041050084 0.07665375 0.0075928713 0.10604916 0.03916583 -0.004827898 -0.06382434
-0.28076023 0.05952665 -0.10585412 0.123757616 0.02151285 0.2309382 -0.31884977 -0.06547414
-0.009303226 -0.23783499 0.22187929 0.04832598 0.15424971 0.08498473 0.38617802 -0.06921764
0.12016715 -0.1884764 0.08688108 -0.06116126 -0.034425355 -0.14132038 -0.061883755 -0.023460804
0.23105498 -0.048222326 0.028547466 -0.14868708 -0.05355075 0.008886634 -0.29104048 0.019430282
0.10384035 0.09968043 -0.06237097 0.05671973 -0.01929632 -0.15943727 0.1310185 -0.19334577
-0.018073503 -0.0037605157 -0.0660448 -0.019753503 -0.059874088 -0.09604303 0.09574733 0.030360082
0.15203828 -0.39580256 0.04312033 0.011854882 -0.009976093 -0.06773103 -0.22609179 0.027810385
-0.56049407 0.08064711 -0.19627048 0.06343033 0.037963726 0.02575213 -0.064707525 0.22518036
0.121924385 0.08736021 0.038757216 -0.24266021 -0.01199327 -0.3160458 0.0696012 -0.27145737
-0.22468878 0.013885015 -0.09435066 -0.0050331126 -0.032214403 -0.17474775 0.07918161 0.08265925
0.014638857 0.08000089 -0.019346487 0.20731737 -0.041058224 0.1270508 0.02361512 -0.066776395
0.078261934 0.18189332 -0.18204696 0.09508283 0.45517626 0.011756156 -0.04730219 0.008706334
-0.09331105 0.113715686 0.099045865 -0.26595962 -0.17767026 -0.35690483 0.0014347526 -0.06989218
0.012914462 0.20122191 -0.07929531 0.10241963 0.14196177 -0.29222345 -0.017738245 -0.4816673
-0.14521042 -0.14329085 -0.010236257 0.011118118 0.32049266 0.036035594 -0.29648125 0.1569188
-0.049906306 -0.03591313 0.055153012 0.22931385 0.052577283 0.02098265 0.0190553 -0.017327847
-0.049265508 0.051558495 0.036970098 0.010476143 -0.024946507 -0.07294388 -0.012178995 -0.108521454
-0.3492904 -0.07313999 0.11987975 -0.1134249 -0.19865195 0.038780615 0.09676043 -0.2413736

hidden_list.0.bias f4 [256]
00000000: 106f de3d f5ee e73d 0f5f 9cbd 4dc7 9cbd
00000010: 8dc4 183e 733b 303e 044a 43be 827f 39bd
00000020: 7ca2 953c 35dc a23d 06e0 49bd 4aa0 96bd
00000030: ce17 f83c f497 b73d 90c0 673d c695 a13d
00000040: 1ccf 96bd 3ad2 9abd f5e5 12bd 881d 27bd
00000050: 65e8 90be 9913 14bd a085 abbd 4624 10be
00000060: e600 833d 6c77 edbc 60ad 133d d9dd 2b3b
00000070: 7a85 22bc 4e34 e1bd 1b58 623d 97d8 4ebe
00000080: 77d3 fcbd 0f36 5ebd b07a 103e 9ada 753e
00000090: d026 b5bd a672 2abd acbf dcbd 04a3 c8bd
000000a0: f524 9ebe a038 5dbd 9ec3 683c a03c b13d
000000b0: 307b 4b3d 65cd 8abe 74ab a8bd d13b c7bd
000000c0: c20e e8bd f3c4 94bd a382 25bd 547d ad3d
000000d0: 7809 f9bc f884 8b3c d59d 7a3d 27ae 70bd
000000e0: bdfb 84be 7615 cfbd ff17 a2bd de2f 393d
000000f0: 8498 c9bd 45e2 243e 0bd4 94bd 83c7 c13d
00000100: f887 03be be65 e6bd 3ea6 f33b 8f48 76bc
00000110: 1b98 823c fd40 e3bd 457e 22be b698 e3bd
00000120: 7039 f63d 6398 b13b 99d1 87bd 8f87 86be
00000130: 4145 103c 1cfd 59be 5166 f8bd 2fa2 52bd
00000140: c263 013e b99e 2dbd abcf 9a3d 0f37 8ebd
00000150: 3b8b 183d 3fac f33d fc52 12be 583a 483c
00000160: 7678 153d 98dc c93e afd9 983d 8b35 80bd
00000170: 2c0f e6bc 1240 0dbd 2804 a13e 129c 9bbd
00000180: fa31 aabe a321 32bd fcfe 593e e3fd 67bd
00000190: bdd7 0fbd a89a 35bb 7e71 4c3e ea12 ec3d
000001a0: e36a 9bbe 9e10 4dbd b345 24bd d799 593e
000001b0: 4ef6 02be 2a63 103d 2b66 353e cab9 12be
000001c0: 4006 583e ae07 24be 8014 95bd 8cd3 66bd
000001d0: c4f2 39be 3dff 513e 1a93 35be dd84 53be
000001e0: f952 d6bd 7c2a dfbb 9d07 eabd 036b 6fbc
000001f0: bb06 a6bd 8ab1 b43c 8c88 953d 1aa2 8abe
00000200: cefb 09be 6d32 e3bd c688 82bb fbd2 e83d
00000210: 23a8 7cbe 8920 d4bb d50d a6ba 5c42 c63c
00000220: 351e f7bd 2c1f 81be 4442 0f3e 7433 d9bc
00000230: e9f4 f6bd 39fc 093d 91da 94bd 847d 9ebe
00000240: 20da c6bd db2c 54bd f0f0 f9bc 78d1 633e
00000250: 1437 a4be 0cf0 04be 8a75 853c 1de0 b9bd
00000260: 5e05 8e3e e51b b6bd 2858 f43d 4752 b53c
00000270: e880 7e3d abbe a3bc 6a2d 7dbd 1afe a13d
00000280: 7608 ebbd 58b7 ccbd 8591 113e daf4 eb3d
00000290: 0517 853e 95f2 8ebe 0c9a 87bd 56f8 423e
000002a0: d01b 2f3c e882 15be 3a80 97bd d2db f5bd
000002b0: f903 143d 4f00 a3be e965 513d d5b8 4dbc
000002c0: 317e 4dbe 719e 13be c136 1bbe 13da 91be
000002d0: 148c febd 5b32 d13d 1729 803e 4d6f 523c
000002e0: ac2a 65be 4581 d9bc 98c0 8e3e cc5e 84bd
000002f0: 8ddd 9bbd 7e5d 64ba 27a0 573e d29d b7bc
00000300: 6e33 41bd 375e 37b9 ae2e 14be 08dd 333e
00000310: f752 dabc c841 b3bd 4756 653d 72ac 743d
00000320: b399 b13d f89c 8abd 84b9 e5bc 28eb c3be
00000330: 6925 b8be d5d8 d8bd 8b4a 2f3e 1419 00bd
00000340: 988d 7e3e 6c3f e3bd b8d7 af3d 90bf 07be
00000350: 1c0f 2f3b 0e01 7abc 9347 fe3d cd0d 92bd
00000360: 0101 fbbd 47d7 cb3c 79a3 09be 6d4b a63d
00000370: 624b 27bb 9b74 a7be 9e32 443e 2e9e fe3c
00000380: 0c3d b73d 1931 abbc cc37 a0be d4ad 74be
00000390: 3bcc 16be 1a05 d8bb 0a6a 19be f776 5cbd
000003a0: ea8a 8cbd e3d3 393d 52e7 c43c a91d e93d
000003b0: c449 2abe 3dc0 19bd 2cbc 88bd 2198 0cbe
000003c0: 9330 2d3e 1adf 483e a0e5 a8bd 7c3e 223d
000003d0: 8805 9abd c011 143d 3641 85bd 40b9 34be
000003e0: 753f a8bd 8e1a 2bbe 96c3 273d 4a72 f3bb
000003f0: 125c 473d 32ae ee3d ba48 b4bd a810 bf3d
0.10861027 0.11324874 -0.076353185 -0.07655201 0.14918728 0.17210178 -0.19071203 -0.045287617
0.018265955 0.079521574 -0.04928591 -0.073547915 0.030284788 0.0896453 0.056580126 0.07889895
-0.07363722 -0.07559629 -0.035863835 -0.040799648 -0.28302303 -0.036151502 -0.08375096 -0.14076337
0.06396656 -0.028987609 0.036054015 0.002622476 -0.009919519 -0.109963045 0.055259805 -0.2019981
-0.12345021 -0.054250773 0.14109302 0.24009171 -0.088452935 -0.041613244 -0.10778746 -0.09796718
-0.3088757 -0.05400908 0.014206795 0.086541414 0.049678028 -0.2710983 -0.08235827 -0.09728206
-0.1133094 -0.072641276 -0.040407788 0.0847117 -0.030400023 0.017031178 0.061185677 -0.058759835
-0.2597331 -0.10111515 -0.07914733 0.045211665 -0.09843543 0.1610194 -0.072670065 0.09461882
-0.12844837 -0.112498745 0.007435589 -0.015031948 0.01594167 -0.1109638 -0.1586848 -0.11113112
0.12022674 0.0054197772 -0.066317745 -0.26275298 0.008805574 -0.2128796 -0.1212889 -0.0514242
0.12635711 -0.042387698 0.07559141 -0.06944095 0.037242156 0.11898088 -0.14289469 0.0122209415
0.036491834 0.39426112 0.07463395 -0.062602125 -0.028083406 -0.03448493 0.31448483 -0.075981274
-0.33241254 -0.04348911 0.21288675 -0.05663861 -0.035117853 -0.002771059 0.19965169 0.11527045
-0.30354986 -0.050064676 -0.040105533 0.21250091 -0.1278927 0.03525082 0.17714755 -0.14328685
0.21096134 -0.16018555 -0.07279301 -0.05635409 -0.18159014 0.20507522 -0.17731896 -0.20656152
-0.104650445 -0.0068104845 -0.11427233 -0.014612916 -0.081067525 0.022057313 0.07301435 -0.270768
-0.13474962 -0.11093602 -0.00398359 0.11368366 -0.24673514 -0.006473605 -0.0012668917 0.024201564
-0.120663084 -0.25219095 0.13990122 -0.026513793 -0.12058432 0.033687804 -0.07268251 -0.30955136
-0.09709573 -0.05180059 -0.030510396 0.22247875 -0.3207327 -0.12982196 0.016291399 -0.09075949
0.2773847 -0.08892039 0.11930877 0.02213396 0.062134653 -0.019988379 -0.06181089 0.07909794
-0.11476223 -0.099959075 0.14215668 0.11521311 0.25994125 -0.2791945 -0.06621179 0.19040045
0.010687783 -0.14600718 -0.07397504 -0.12004818 0.0361366 -0.31836173 0.05112258 -0.012556274
-0.2006767 -0.1441591 -0.15157606 -0.2848669 -0.124290615 0.10214683 0.2503135 0.012843919
-0.2237956 -0.026550898 0.27881312 -0.064633936 -0.07610617 -0.0008711441 0.21057187 -0.022414122
-0.047168188 -0.00017487338 -0.14470932 0.17564785 -0.026650889 -0.08752781 0.055990484 0.05973477
0.08671894 -0.06768221 -0.028042562 -0.38265347 -0.35966042 -0.105882324 0.1711828 -0.031273916
0.24858701 -0.11096081 0.08586067 -0.13256669 0.0026711887 -0.0152590405 0.124159954 -0.071315385
-0.12256051 0.024882926 -0.13441266 0.08119855 -0.002552711 -0.3270615 0.19159934 0.031081285
0.08947191 -0.020897435 -0.3129257 -0.23894435 -0.14726345 -0.006592405 -0.14981857 -0.05382439
-0.06862433 0.045368087 0.024036083 0.1138261 -0.16629702 -0.03753685 -0.06676516 -0.13729908
0.16913061 0.19616356 -0.082469225 0.03961037 -0.07520586 0.03614974 -0.065065786 -0.17648792
-0.082152285 -0.16709349 0.04095801 -0.007429396 0.04867179 0.11654319 -0.08802934 0.09329349

hidden_list.1.weight f4 [128, 256]
00000000: b29c 5bbe 78b0 e9bd c2f6 d5bc 6f75 a8bc
00000010: c712 a1be 2b0f 01be 6eb5 57be c045 1dbe
00000020: d69f dc3c 43a3 20be a10c eebb 7ced 89bd
00000030: 3681 9dbd ce9f a1bd 4138 fabd f8cd ba3d
00000040: 2be8 153d fadb 75bd bc4a 8f3d e21e 413d
00000050: ee54 a03d 4027 2c3d a839 99be 2ae6 11be
00000060: 3c68 cabb 1a7f 4fbe decb 1abe badc 0abd
00000070: 40eb c3be e4c9 3abd 69c4 febd e3a8 cfbe
00000080: 9bed 6b3d 8016 bdbe 8156 a0bc d483 7dbd
00000090: 26a8 943c d68a 6fbc 8171 81bb 425b 623c
000000a0: 51ba 18be 4d4c cbbd f085 41bc 2867 99bd
000000b0: de74 d5be 1144 663d 3e19 a13d bae6 5dbb
000000c0: 1e41 ecbb ddf8 803c 67ff 6b3d ad75 f1bd
000000d0: 80ae b8bd 88c0 de3d 850c 8a3d 2c86 293c
000000e0: 6a09 61bd cdfc fcbd ad2a f2bd 6810 1e3d
000000f0: 305f 00bd 7397 09bd 64e4 34bd 6a65 943d
00000100: 60ac c23d c5ed f5bd 949b 25bd b09d 1dbc
00000110: 90e6 a53d 5e7d d8be cfe5 10bf e597 813d
00000120: 4b7e 853d 096a 04be 955b 723e fa91 6fbe
00000130: e569 c73e 80f0 80be ac00 3fbc a744 76be
00000140: 3d99 62bd e80c 40bd 05a2 9dbe db70 563e
00000150: 5841 43bd d266 be3d 60d5 2d3d 6bf0 a5bd
00000160: 18cb 92bd 04af 1ebc 8fa1 b33d f0f6 21bd
00000170: acbe 203d b1f0 323e 7a99 c6bd 8718 1abe
00000180: e12c 94be 92e9 fdbd ffe0 a03d cfdc 133d
00000190: 192b 133e 3bb8 883e 90a3 dfbd c5d4 5f3d
000001a0: 4e7d 8cbe 236d 8abc 507a d0bc 0e10 67be
000001b0: 847a 9ebd 2bd9 d33c 6100 a6bd 6bae 6e3d
000001c0: f3de 233d 128b 053d cdd1 c2bb 5551 0d3d
000001d0: 2b24 05bf 88d4 6bbd 83ba ffbd bb64 3c3e
000001e0: 8fdd 1a3d 9d11 8fbe 6168 1fbd 5ced 6e3e
000001f0: 82d9 febb 0496 c4bc 91f9 083e c144 82be
00000200: 8f32 563d e71a 143c 8e59 1abe f77b c7bd
00000210: c624 1c3d 18c5 f73d 45a9 02bf cc37 b1be
00000220: 558c bf3b 5136 1abe d823 c9bd eb38 78bd
00000230: f78a debd 2256 4bbe 5d7b 453d a155 93be
00000240: 2f07 d5bd 116e a2bc 1665 a63d 94c1 093d
00000250: b70d a6bd 20fb 093d dfd7 c2bd 899b acbd
00000260: 1829 fdbd 0dc3 43be b447 193d b522 463d
00000270: b7fb 353d 1e85 1cbb 516d a43e 7c45 27be
00000280: 5b87 973d 7900 343e 7733 cfbd 51d3 61be
00000290: 4ef4 323c f119 d9be 8221 323c 0daf 06be
000002a0: 6520 5ebe 0ce7 6ebe bb6d a2bd ab6f 83be
000002b0: fade 7d3e 0713 cfbe 682d c1bb 17de bfbd
000002c0: 0c8a 10bf e6db 2e3e ff89 7fbd 55ff 53be
000002d0: b6e4 f8bc b1e3 8cbd 0636 113c cb8f 81bd
000002e0: 75ed 6dbe f105 b9be 6d31 42bc e220 aa3c
000002f0: d661 6c3d 97cb b73d 8f2d dc3d e381 c8be
00000300: 7dc0 1abd 487f e73c 6284 70be adea 15be
00000310: bf22 4b3e e0d9 183d 51dd bcbb 1f41 91bb
00000320: 8e86 24be 799b f8bd b36a 64bd 453e 9fbd
00000330: 820c 903d ea2b f7bd e9ca 2f3a ce85 013e
00000340: a18a f63c 8419 863e c8ce bd3d 6995 c1bc
00000350: 0eb3 513e 0191 5e3e 312d 2cbe 3e7e b5bd
00000360: 1b35 6c3d 82b4 5cbd 0638 acbe 37b9 3f3e
00000370: f24d b2bd f233 01bf 5afd 85bd 7c29 37be
00000380: b7a0 8dbe b885 a93e 6f69 87be d0a3 7dbe
00000390: 33aa 27be 20b0 4c3e ee82 ac3d 6b19 853d
000003a0: 5eca 513e 0c25 ef3d 2393 63bc c030 3bbe
000003b0: 65c1 5e3e d008 bb3e f9c8 c9bd d32c 5c3d
000003c0: f3f9 0e3d 57c8 d0bd 0709 99be 5ba3 d13b
000003d0: c674 75be b25a ab3d 0339 4abd 4344 c03d
000003e0: 69d6 85bd fd94 093e 7c7c 15bd 0665 153e
000003f0: cb6c 8b3d 1968 b43e 3fed e43d 93a5 e6bd
-0.21446493 -0.11410612 -0.02611864 -0.02056381 -0.31459638 -0.12603442 -0.21065304 -0.15358639
0.026931684 -0.1568728 -0.007264689 -0.0673475 -0.07690661 -0.078918085 -0.12217761 0.09121317
0.036598366 -0.06002424 0.06996676 0.047148593 0.07828699 0.04202962 -0.299268 -0.14247957
-0.0061769765 -0.20263329 -0.15116832 -0.033901908 -0.3826542 -0.045602694 -0.12439806 -0.40558538
0.057599645 -0.3693123 -0.019572498 -0.0618933 0.018146586 -0.014620503 -0.0039502983 0.013815703
-0.14914824 -0.099266626 -0.011811718 -0.074903786 -0.41690725 0.056217257 0.07866143 -0.0033859448
-0.007209911 0.015743667 0.057616618 -0.11790023 -0.09017658 0.10876566 0.06740669 0.0103469305
-0.05494062 -0.123529054 -0.11824546 0.038589865 -0.031340778 -0.0335917 -0.044163123 0.07245906
0.09505534 -0.120082416 -0.040431574 -0.009620115 0.08100617 -0.42283148 -0.5660066 0.063278
0.06518229 -0.12931074 0.23667748 -0.2339553 0.3894798 -0.25183487 -0.011657875 -0.24049626
-0.05532192 -0.04688731 -0.30787674 0.20941488 -0.04766974 0.09296955 0.04243982 -0.08102497
-0.07167643 -0.009685282 0.08771049 -0.03954214 0.03924434 0.17474629 -0.09697242 -0.15048419
-0.2894049 -0.123980656 0.078554146 0.03609925 0.14371909 0.26703057 -0.10919869 0.054646272
-0.2743935 -0.016897744 -0.025448948 -0.22564718 -0.07738212 0.02586039 -0.08105541 0.058271807
0.040007543 0.03260333 -0.0059454204 0.034501392 -0.5200831 -0.057575732 -0.12486746 0.183978
0.03780895 -0.27943125 -0.038917903 0.23332733 -0.007777394 -0.023997314 0.13376452 -0.2544308
0.05229431 0.009039617 -0.15073225 -0.09740441 0.038121007 0.120981395 -0.51039535 -0.34612882
0.0058455863 -0.15059783 -0.0982129 -0.060601156 -0.10866349 -0.19857076 0.04821335 -0.28776267
-0.10401761 -0.019827874 0.08124749 0.033631876 -0.08108085 0.033686757 -0.095138304 -0.084281035
-0.12361354 -0.19117375 0.037421897 0.048372943 0.044429507 -0.0023883055 0.32114652 -0.163351
0.07398864 0.17578305 -0.10117238 -0.22053267 0.010922505 -0.42402604 0.010872247 -0.13152714
-0.21692045 -0.23330325 -0.07931086 -0.25671133 0.2479209 -0.40444204 -0.0058953054 -0.09368532
-0.5646064 0.17076072 -0.062387463 -0.2070287 -0.030382495 -0.06879366 0.008862978 -0.063262545
-0.23235114 -0.36137345 -0.011852604 0.020767633 0.05771049 0.089743786 0.10750877 -0.39161596
-0.037781227 0.028258935 -0.23488 -0.14640303 0.19837473 0.037317157 -0.0057636877 -0.004432812
-0.16066954 -0.12139029 -0.05576582 -0.07775549 0.07033636 -0.12068923 0.0006705956 0.12648699
0.0300954 0.26191342 0.09267956 -0.023630815 0.2047846 0.21735002 -0.16814114 -0.088619694
0.057667833 -0.053883083 -0.33636492 0.18722998 -0.08706273 -0.5046989 -0.065424636 -0.17886919
-0.27661678 0.33109832 -0.26447627 -0.24769521 -0.1637352 0.19989061 0.0842341 0.06498989
0.20487353 0.11676988 -0.013890061 -0.18280315 0.21753462 0.3653016 -0.098527856 0.053753685
0.03490634 -0.10194462 -0.298897 0.0063976473 -0.23970327 0.08366908 -0.049370777 0.0938802
-0.06535036 0.13435741 -0.03649567 0.14589319 0.0680786 0.3523567 0.111780636 -0.112620495

hidden_list.1.bias f4 [128]
00000000: 9cd9 123e 07c5 b5bd 1b06 02bd 591b 93bd
00000010: e5bd 283d 7f80 d5bd 4364 383e eab5 cbbc
00000020: 1353 653e 9607 c6bd f463 ac3d c8ed a9bd
00000030: fbca 28bd 2ac7 05bd 027b 30bd 440b 1b3f
00000040: ef36 883e 88db b4be f385 203e 9c7e 2ebd
00000050: 3f94 f43d b80a 9ebd 2bbd fbbc 4c1c 6cbc
00000060: d239 773d f42a 75bc 1671 f73e bfcd d1bc
00000070: a99a 4b3c ee99 45bd f56b abbc 9436 02bd
00000080: 5efc 4bbd 97bf 48bd 5876 b0bd 2fe9 3ebc
00000090: c64b b0bd f439 c5bd ee87 123e 199a c7bd
000000a0: 3850 9cbd 6e0e 10bc f256 27bd afa2 59bd
000000b0: 2063 dcbc e623 a3bd 7307 7fbe 83b9 a1bb
000000c0: b00b a6bd 0142 bcbd 6388 95bd 4bb4 85bd
000000d0: f8ae 763d 8562 e0bc 1af2 4abc f1a0 d7bd
000000e0: 86eb 76be f045 183e 66a8 44bd 9120 dfbd
000000f0: 10d0 4ebd 811c acbc caab 59bd fe53 423d
00000100: b567 05bd c01d 38bd 339f 17be f03d a2bb
00000110: 8555 833e c69d b4bd dc73 00be 003a 5dbd
00000120: aa9e 633d 95f6 9fbe a5ca 12ba ee4c 86bd
00000130: 3c0b 5ebd 9bee 5dbc 5ccb 1ebd 2cd5 c53e
00000140: 4774 b0bd 4e9b ed3d 084e bfbd b0f8 71bd
00000150: 537b 9abd 0158 c3bc 04f5 f23e 323e 19bd
00000160: ec2d cebd f94b 98bd ae3f ccbe 15a2 a43c
00000170: 556c d1bc c476 b7bd 763c 253e 7234 9cbd
00000180: 1eeb b4bd 479b d8bd fcf8 6e3e c8c1 f4bc
00000190: 2e7f c3bd 84dc e33b ef60 03be b743 ecbc
000001a0: 135b 5cbd 7955 ae3d c450 e7bd ac88 19be
000001b0: 59eb 013c 87e2 15be d1c1 3dbc bee9 02be
000001c0: 9de3 dcbc e76b 46be 3dcf b4bc a2ef 6fbd
000001d0: a1c4 c5bd 3611 2ebd a10e 19be 611c 6abd
000001e0: e300 9dba 51af 2fbc 6a40 bcbc 6848 1dbd
000001f0: 8585 0bbd c083 cd3e 7789 2b3d 5fd7 463d
0.14340824 -0.088754706 -0.031744104 -0.071829505 0.041196723 -0.10424899 0.18006997 -0.024867017
0.22394972 -0.09669416 0.08417502 -0.08297306 -0.041209202 -0.03266064 -0.04308606 0.60564065
0.2660441 -0.3532374 0.15676098 -0.042601213 0.11942338 -0.07716888 -0.03072985 -0.014411043
0.060357876 -0.014963854 0.48328465 -0.025610803 0.012427011 -0.048242502 -0.020925501 -0.03179033
-0.049801223 -0.04901084 -0.08616322 -0.011652275 -0.08608203 -0.09630194 0.14309666 -0.09746189
-0.07632488 -0.008792503 -0.040854402 -0.053133663 -0.026902735 -0.079658315 -0.24905185 -0.004935445
-0.08107698 -0.09192277 -0.07301404 -0.06528529 0.060225457 -0.027390728 -0.012386823 -0.10528744
-0.24113283 0.14870429 -0.04801216 -0.108948834 -0.050491393 -0.021009685 -0.053142346 0.047443382
-0.032569606 -0.044950247 -0.14806823 -0.004951231 0.25651184 -0.088191554 -0.12544197 -0.05401039
0.055571236 -0.31242815 -0.00055996544 -0.06557642 -0.054209933 -0.0135456575 -0.038768157 0.386392
-0.08615928 0.11601888 -0.09341055 -0.059075058 -0.075430535 -0.023845674 0.47452557 -0.03741283
-0.10067353 -0.07436366 -0.39892334 0.020096818 -0.025564352 -0.089581996 0.16136345 -0.07627191
-0.088339075 -0.10576492 0.23337168 -0.029877558 -0.09545742 0.0069537777 -0.12829946 -0.028840883
-0.053797793 0.08512396 -0.11294702 -0.14993542 0.007929646 -0.14637195 -0.011581854 -0.12784478
-0.026964003 -0.19377099 -0.022071475 -0.05857814 -0.096566446 -0.042496882 -0.14946987 -0.05715597
-0.0011978414 -0.010722951 -0.022979934 -0.03839913 -0.03406288 0.4013958 0.041879144 0.048545238

fc_out.weight f4 [4, 128]
00000000: 1692 433c ec9f 1cbe ef0a cfba 37d5 24bd
00000010: 99bd 043e c8d6 28bb ad2d c73d 0cdb 57bd
00000020: 2744 4c3e d35c c6bb 2023 e53b c508 803d
00000030: 8a36 35bc 8c49 5ebd 7715 cdbd 8006 3d3e
00000040: 9aa7 453e e46a d4bc 8bb5 f43c 9745 d33c
00000050: 36ea 433d 0330 ccbc f44b 37bc c28e 79bd
00000060: f274 013e dc59 963c 839a 2e3e 9410 d3bc
00000070: 5a54 b3bc ca54 b93b 3225 583d 6d73 0cbe
00000080: b604 85bd c824 a6bd 1c30 8abd 7c96 5cbd
00000090: 7c04 02be f6b8 e63c a274 283d 4f8e 3a3d
000000a0: 6629 9ebd dbb8 aaba de61 a33c 006e 9ebd
000000b0: da3d 4f3c faed bf3b 1a1c 6ebe a4a1 13bd
000000c0: 94fe 0abb 8b16 abbd bdda df3c ff0f 083e
000000d0: b7c2 8e3e 324a 64bd 07f6 19bd 3c59 a43c
000000e0: d877 80be 2ba6 153d bbe8 d6bc 45fc 28bd
000000f0: 0586 c7bc ca3d c93c 06d7 7abd 25e4 213b
00000100: 5bd3 0ebd 7a32 84bd 369e 90bd d2c1 d2ba
00000110: 3737 593d b913 62bd b1b8 ecbb 07da 76bd
00000120: d5fd 1aba 219f 67bd 7cf5 aa3d bc5f 0fbd
00000130: 9587 f1bb 9124 acbd 5b7e d13c 7a29 073e
00000140: 06f2 cc3a b7d8 363e f6bd 27bb ebfc b43c
00000150: 8540 693b 4694 a4bc c2f9 4f3e 488c d2ba
00000160: bc31 983c 8e92 72bd 906b 1abe 7599 453e
00000170: a145 65bd a3cd fdbc 004d 6b3d 8ffa 51bd
00000180: 0a5e 503d 0df7 53bb 8be7 0f3e 83b2 b13a
00000190: d149 153d 1147 78bd 8a37 32bd 4546 f63b
000001a0: 2035 9fbb 5ee9 9f3c c323 bbbe ae29 04bd
000001b0: 32a9 b53d 5adf e3be 6791 6fbc a1ac 31be
000001c0: 33d8 5ebd f3d3 7cbe db7c 533d aff1 0cbd
000001d0: 4999 1cbd ee82 853d 75c4 6cbc 559b 963d
000001e0: a128 0d3c 87c3 1cbd ca70 773d 6b20 90bb
000001f0: 24ed 8cbb 6ef1 143e 44d5 253d 574e c83a
00000200: 4d4f d53d 7672 0ebd fb49 1bbd 9870 13bc
00000210: b2ec d63d 52c3 9c3d 67eb ab3d 931f 9c3d
00000220: a5ec 0f3e f557 84bc 3fd6 46bd 13bb cd3c
00000230: 454d 183c d227 f7bd d143 49bd a044 443e
00000240: 67d9 2b3e 297b dabd a03c fc3d 4ba8 14bd
00000250: e98f 0b3d 8c4a 103d 6f4e 863d 9cd1 c3bc
00000260: eeb9 c53d fba3 f5bc 2218 1a3e d29e 84bc
00000270: 8582 283d b9c2 04bd ef20 80bd fd5c 413c
00000280: 84ca 513c c5ef 233d a69c 58bd ee36 b7bc
00000290: eaa0 733d d612 6bbb 5546 113e d7d3 b1bd
000002a0: 7885 f5bc 73e2 5ebd 11cb 203b 877d 423d
000002b0: d762 57bc 06a6 b2bb 53b3 55bd 2636 85bd
000002c0: 8621 003d 9eb4 1d3d 9cf9 5f3a 7945 773d
000002d0: 1077 f33d fe3b 75b9 725c 96bd 8fa0 54bd
000002e0: dd75 f1bd 6849 8d3d 3890 52bc 3028 46be
000002f0: 361b b5b8 7148 e33c de6d 863d 4f7f 8e3d
00000300: 8d0d b83b e26a 94bc 9a3c 823d d1b5 13be
00000310: 37c3 833d fe24 5b3d f66b a5bd 886c 0bbd
00000320: 397e 9c3d 6174 7bbd 13c5 09bc ae06 4c3d
00000330: 20c0 403d a15b 5dbd ac29 963d 653b b23d
00000340: 8b7f d8bc ba00 323e c241 643c 5cb3 7dbd
00000350: 3a42 99bd 172f 43bd 4b1d 1b3e 4f22 9ebd
00000360: a569 323d 2f0a 643c 3aa0 63bd 0654 623e
00000370: f675 abbd bab7 a4bd 3972 f03d 007e 723d
00000380: 39c7 87bd 374e 323c dc36 f73d bbc5 70bc
00000390: 5e7d 6abc 47b9 46bb 7854 d4bb a89f 883d
000003a0: b8b0 acbb 0d26 153e 833a 91bd 5f14 a43b
000003b0: 94ed 58bd fb0f b23d 1635 ca3c 84cf 64bd
000003c0: 2e8e db3d 7e97 3cbe 8998 2a3c 1bcf 87bc
000003d0: 8a5f c93c d7f0 b7bc 88a9 eebb 5557 563c
000003e0: cba4 15bd be5f e2bb e970 143d f8ae 713d
000003f0: 86ad 413d f668 043e e349 f73d 25e2 c83c
0.011936685 -0.1529538 -0.0015796105 -0.0402424 0.12962951 -0.0025762785 0.09725509 -0.052699134
0.19947873 -0.006053546 0.0069927126 0.06251673 -0.011060366 -0.05426936 -0.1001386 0.18459511
0.19302216 -0.025929876 0.029871723 0.025790019 0.047830783 -0.024925238 -0.011187542 -0.06092716
0.12642267 0.018353395 0.17051129 -0.025764741 -0.021890808 0.0056558596 0.052769847 -0.13715906
-0.06495039 -0.08112484 -0.067474574 -0.05385445 -0.12697023 0.028164368 0.041126855 0.045545872
-0.0772274 -0.0013025062 0.019944128 -0.077358246 0.012649024 0.0058572264 -0.23252907 -0.036042824
-0.002120887 -0.08353909 0.027325982 0.13287352 0.2788293 -0.05573482 -0.037588146 0.020062082
-0.25091434 0.036535423 -0.026234021 -0.041256208 -0.024355898 0.024565596 -0.06124022 0.0024702635
-0.034869533 -0.0645494 -0.07061426 -0.0016079491 0.053031173 -0.05519459 -0.0072241654 -0.06026652
-0.0005912458 -0.05654824 0.08347604 -0.03500341 -0.007370899 -0.08405412 0.025572946 0.13199416
0.0015636093 0.17856108 -0.0025595403 0.022093257 0.0035591435 -0.020090234 0.20310119 -0.0016063536
0.018578403 -0.059221797 -0.15080094 0.1929682 -0.055974606 -0.030981844 0.05744648 -0.051264342
0.050870933 -0.0032343299 0.1405317 0.0013557229 0.03644735 -0.06061465 -0.043509997 0.007515701
-0.004858628 0.019520458 -0.36550722 -0.03226631 0.08870162 -0.4450634 -0.014622069 -0.17351009
-0.054405402 -0.24690227 0.051632743 -0.034410175 -0.03823212 0.065191135 -0.014451136 0.07353846
0.008615644 -0.038272407 0.0604103 -0.004398396 -0.0043007303 0.14545223 0.04048659 0.0015282136
0.10415516 -0.034777127 -0.03791235 -0.008999012 0.10494365 0.07654442 0.08394509 0.0762321
0.14055116 -0.016155222 -0.048544165 0.025113618 0.009295766 -0.12068142 -0.04913694 0.19166803
0.16782151 -0.10668022 0.12316251 -0.03629331 0.03407279 0.035227343 0.06557929 -0.02390366
0.09654604 -0.029985419 0.15048268 -0.016189013 0.041140098 -0.032412264 -0.062562816 0.011801955
0.012804631 0.040023584 -0.052883767 -0.02236506 0.05947963 -0.0035869381 0.14186986 -0.08682983
-0.02997087 -0.054415178 0.00245351 0.047482993 -0.013146124 -0.0054519204 -0.05217297 -0.065044686
0.03128197 0.038502328 0.00085439696 0.06036899 0.11887944 -0.0002338737 -0.07341851 -0.051910933
-0.11790059 0.06898767 -0.012851767 -0.19351268 -8.635821e-05 0.027744504 0.06563924 0.06957876
0.0056168498 -0.018117372 0.06359215 -0.14424826 0.06433719 0.053502075 -0.080772325 -0.03403905
0.076412626 -0.061390284 -0.008408803 0.049811058 0.047058225 -0.054042462 0.07332167 0.08702735
-0.026428005 0.1738309 0.0139316935 -0.06193863 -0.07483335 -0.04765233 0.15147893 -0.077213876
0.04355778 0.013918444 -0.055572726 0.22102365 -0.08372109 -0.080428556 0.11740536 0.059202194
-0.066297956 0.010882906 0.120710105 -0.01469558 -0.014312116 -0.0030322836 -0.006479796 0.06671077
-0.00527009 0.14565296 -0.07091238 0.0050073112 -0.052960947 0.08694454 0.024683516 -0.055861965
0.10720478 -0.18417165 0.010412344 -0.016578248 0.02458169 -0.022453709 -0.0072833933 0.013082345
-0.036534112 -0.006908386 0.036240492 0.059004754 0.047284625 0.12930664 0.1207464 0.024521897

fc_out.bias f4 [4]
00000000: 2a5d d43e eadc d43e dfcc d23e e7b2 ea3e
0.4147733 0.41574794 0.4117193 0.45839617
